{
  "format": "graph-model",
  "generatedBy": "2.13.0",
  "convertedBy": "TensorFlow.js Converter v4.10.0",
  "signature": { "outputs": { "Identity:0": { "name": "Identity:0" } } },
  "modelTopology": {
    "node": [
      {
        "name": "ConstantFolding/PartitionedCall/model_2/tf.math.divide/truediv_recip",
        "op": "Const",
        "attr": {
          "value": {
            "tensor": {
              "dtype": "DT_FLOAT",
              "tensorShape": {
                "dim": [{ "size": "1" }, { "size": "1" }, { "size": "1" }]
              }
            }
          },
          "dtype": { "type": "DT_FLOAT" }
        }
      },
      {
        "name": "3287",
        "op": "Const",
        "attr": {
          "value": {
            "tensor": {
              "dtype": "DT_FLOAT",
              "tensorShape": {
                "dim": [{ "size": "1" }, { "size": "2" }, { "size": "8400" }]
              }
            }
          },
          "dtype": { "type": "DT_FLOAT" }
        }
      },
      {
        "name": "3279",
        "op": "Const",
        "attr": {
          "value": {
            "tensor": {
              "dtype": "DT_INT64",
              "tensorShape": { "dim": [{ "size": "3" }] }
            }
          },
          "dtype": { "type": "DT_INT64" }
        }
      },
      {
        "name": "3281",
        "op": "Const",
        "attr": {
          "value": {
            "tensor": {
              "dtype": "DT_INT64",
              "tensorShape": { "dim": [{ "size": "3" }] }
            }
          },
          "dtype": { "type": "DT_INT64" }
        }
      },
      {
        "name": "PartitionedCall/model_2/tf.strided_slice_19/ones_like",
        "op": "Const",
        "attr": {
          "value": {
            "tensor": {
              "dtype": "DT_INT64",
              "tensorShape": { "dim": [{ "size": "3" }] }
            }
          },
          "dtype": { "type": "DT_INT64" }
        }
      },
      {
        "name": "3289",
        "op": "Const",
        "attr": {
          "value": {
            "tensor": {
              "dtype": "DT_FLOAT",
              "tensorShape": {
                "dim": [{ "size": "1" }, { "size": "2" }, { "size": "8400" }]
              }
            }
          },
          "dtype": { "type": "DT_FLOAT" }
        }
      },
      {
        "name": "3273",
        "op": "Const",
        "attr": {
          "value": {
            "tensor": {
              "dtype": "DT_INT64",
              "tensorShape": { "dim": [{ "size": "3" }] }
            }
          },
          "dtype": { "type": "DT_INT64" }
        }
      },
      {
        "name": "3275",
        "op": "Const",
        "attr": {
          "value": {
            "tensor": {
              "dtype": "DT_INT64",
              "tensorShape": { "dim": [{ "size": "3" }] }
            }
          },
          "dtype": { "type": "DT_INT64" }
        }
      },
      {
        "name": "PartitionedCall/model_2/tf.strided_slice_16/StridedSlice/strides",
        "op": "Const",
        "attr": {
          "value": {
            "tensor": {
              "dtype": "DT_INT64",
              "tensorShape": { "dim": [{ "size": "3" }] }
            }
          },
          "dtype": { "type": "DT_INT64" }
        }
      },
      {
        "name": "PartitionedCall/model_2/tf.reshape_3/Reshape/shape",
        "op": "Const",
        "attr": {
          "value": {
            "tensor": {
              "dtype": "DT_INT32",
              "tensorShape": { "dim": [{ "size": "4" }] }
            }
          },
          "dtype": { "type": "DT_INT32" }
        }
      },
      {
        "name": "PartitionedCall/model_2/tf.compat.v1.transpose_4/transpose/perm",
        "op": "Const",
        "attr": {
          "value": {
            "tensor": {
              "dtype": "DT_INT32",
              "tensorShape": { "dim": [{ "size": "4" }] }
            }
          },
          "dtype": { "type": "DT_INT32" }
        }
      },
      {
        "name": "PartitionedCall/model_2/tf.compat.v1.transpose_5/transpose/perm",
        "op": "Const",
        "attr": {
          "value": {
            "tensor": {
              "dtype": "DT_INT32",
              "tensorShape": { "dim": [{ "size": "4" }] }
            }
          },
          "dtype": { "type": "DT_INT32" }
        }
      },
      {
        "name": "3277",
        "op": "Const",
        "attr": {
          "value": {
            "tensor": {
              "dtype": "DT_FLOAT",
              "tensorShape": {
                "dim": [
                  { "size": "1" },
                  { "size": "1" },
                  { "size": "16" },
                  { "size": "1" }
                ]
              }
            }
          },
          "dtype": { "type": "DT_FLOAT" }
        }
      },
      {
        "name": "PartitionedCall/model_2/tf.compat.v1.transpose_8/transpose/perm",
        "op": "Const",
        "attr": {
          "value": {
            "tensor": {
              "dtype": "DT_INT32",
              "tensorShape": { "dim": [{ "size": "4" }] }
            }
          },
          "dtype": { "type": "DT_INT32" }
        }
      },
      {
        "name": "PartitionedCall/model_2/tf.reshape_4/Reshape/shape",
        "op": "Const",
        "attr": {
          "value": {
            "tensor": {
              "dtype": "DT_INT32",
              "tensorShape": { "dim": [{ "size": "3" }] }
            }
          },
          "dtype": { "type": "DT_INT32" }
        }
      },
      {
        "name": "3283",
        "op": "Const",
        "attr": {
          "value": {
            "tensor": {
              "dtype": "DT_INT64",
              "tensorShape": { "dim": [{ "size": "3" }] }
            }
          },
          "dtype": { "type": "DT_INT64" }
        }
      },
      {
        "name": "3285",
        "op": "Const",
        "attr": {
          "value": {
            "tensor": {
              "dtype": "DT_INT64",
              "tensorShape": { "dim": [{ "size": "3" }] }
            }
          },
          "dtype": { "type": "DT_INT64" }
        }
      },
      {
        "name": "PartitionedCall/model_2/tf.strided_slice_18/ones_like",
        "op": "Const",
        "attr": {
          "value": {
            "tensor": {
              "dtype": "DT_INT64",
              "tensorShape": { "dim": [{ "size": "3" }] }
            }
          },
          "dtype": { "type": "DT_INT64" }
        }
      },
      {
        "name": "PartitionedCall/model_2/tf.concat_17/concat/axis",
        "op": "Const",
        "attr": {
          "value": { "tensor": { "dtype": "DT_INT32", "tensorShape": {} } },
          "dtype": { "type": "DT_INT32" }
        }
      },
      {
        "name": "PartitionedCall/model_2/tf.math.multiply_185/Mul/y",
        "op": "Const",
        "attr": {
          "value": {
            "tensor": {
              "dtype": "DT_FLOAT",
              "tensorShape": {
                "dim": [{ "size": "1" }, { "size": "1" }, { "size": "8400" }]
              }
            }
          },
          "dtype": { "type": "DT_FLOAT" }
        }
      },
      {
        "name": "3211",
        "op": "Const",
        "attr": {
          "value": {
            "tensor": {
              "dtype": "DT_FLOAT",
              "tensorShape": {
                "dim": [
                  { "size": "3" },
                  { "size": "3" },
                  { "size": "64" },
                  { "size": "64" }
                ]
              }
            }
          },
          "dtype": { "type": "DT_FLOAT" }
        }
      },
      {
        "name": "3223",
        "op": "Const",
        "attr": {
          "value": {
            "tensor": {
              "dtype": "DT_FLOAT",
              "tensorShape": { "dim": [{ "size": "64" }] }
            }
          },
          "dtype": { "type": "DT_FLOAT" }
        }
      },
      {
        "name": "3235",
        "op": "Const",
        "attr": {
          "value": {
            "tensor": {
              "dtype": "DT_FLOAT",
              "tensorShape": {
                "dim": [
                  { "size": "3" },
                  { "size": "3" },
                  { "size": "64" },
                  { "size": "64" }
                ]
              }
            }
          },
          "dtype": { "type": "DT_FLOAT" }
        }
      },
      {
        "name": "3247",
        "op": "Const",
        "attr": {
          "value": {
            "tensor": {
              "dtype": "DT_FLOAT",
              "tensorShape": { "dim": [{ "size": "64" }] }
            }
          },
          "dtype": { "type": "DT_FLOAT" }
        }
      },
      {
        "name": "3259",
        "op": "Const",
        "attr": {
          "value": {
            "tensor": {
              "dtype": "DT_FLOAT",
              "tensorShape": {
                "dim": [
                  { "size": "1" },
                  { "size": "1" },
                  { "size": "64" },
                  { "size": "64" }
                ]
              }
            }
          },
          "dtype": { "type": "DT_FLOAT" }
        }
      },
      {
        "name": "3269",
        "op": "Const",
        "attr": {
          "value": {
            "tensor": {
              "dtype": "DT_FLOAT",
              "tensorShape": { "dim": [{ "size": "64" }] }
            }
          },
          "dtype": { "type": "DT_FLOAT" }
        }
      },
      {
        "name": "3209",
        "op": "Const",
        "attr": {
          "value": {
            "tensor": {
              "dtype": "DT_FLOAT",
              "tensorShape": {
                "dim": [
                  { "size": "3" },
                  { "size": "3" },
                  { "size": "64" },
                  { "size": "64" }
                ]
              }
            }
          },
          "dtype": { "type": "DT_FLOAT" }
        }
      },
      {
        "name": "3221",
        "op": "Const",
        "attr": {
          "value": {
            "tensor": {
              "dtype": "DT_FLOAT",
              "tensorShape": { "dim": [{ "size": "64" }] }
            }
          },
          "dtype": { "type": "DT_FLOAT" }
        }
      },
      {
        "name": "3233",
        "op": "Const",
        "attr": {
          "value": {
            "tensor": {
              "dtype": "DT_FLOAT",
              "tensorShape": {
                "dim": [
                  { "size": "3" },
                  { "size": "3" },
                  { "size": "64" },
                  { "size": "64" }
                ]
              }
            }
          },
          "dtype": { "type": "DT_FLOAT" }
        }
      },
      {
        "name": "3245",
        "op": "Const",
        "attr": {
          "value": {
            "tensor": {
              "dtype": "DT_FLOAT",
              "tensorShape": { "dim": [{ "size": "64" }] }
            }
          },
          "dtype": { "type": "DT_FLOAT" }
        }
      },
      {
        "name": "3257",
        "op": "Const",
        "attr": {
          "value": {
            "tensor": {
              "dtype": "DT_FLOAT",
              "tensorShape": {
                "dim": [
                  { "size": "1" },
                  { "size": "1" },
                  { "size": "64" },
                  { "size": "26" }
                ]
              }
            }
          },
          "dtype": { "type": "DT_FLOAT" }
        }
      },
      {
        "name": "3271",
        "op": "Const",
        "attr": {
          "value": {
            "tensor": {
              "dtype": "DT_FLOAT",
              "tensorShape": { "dim": [{ "size": "26" }] }
            }
          },
          "dtype": { "type": "DT_FLOAT" }
        }
      },
      {
        "name": "PartitionedCall/model_2/tf.concat_10/concat/axis",
        "op": "Const",
        "attr": {
          "value": { "tensor": { "dtype": "DT_INT32", "tensorShape": {} } },
          "dtype": { "type": "DT_INT32" }
        }
      },
      {
        "name": "PartitionedCall/model_2/tf.compat.v1.transpose/transpose/perm",
        "op": "Const",
        "attr": {
          "value": {
            "tensor": {
              "dtype": "DT_INT32",
              "tensorShape": { "dim": [{ "size": "4" }] }
            }
          },
          "dtype": { "type": "DT_INT32" }
        }
      },
      {
        "name": "PartitionedCall/model_2/tf.reshape/Reshape/shape",
        "op": "Const",
        "attr": {
          "value": {
            "tensor": {
              "dtype": "DT_INT32",
              "tensorShape": { "dim": [{ "size": "3" }] }
            }
          },
          "dtype": { "type": "DT_INT32" }
        }
      },
      {
        "name": "3207",
        "op": "Const",
        "attr": {
          "value": {
            "tensor": {
              "dtype": "DT_FLOAT",
              "tensorShape": {
                "dim": [
                  { "size": "3" },
                  { "size": "3" },
                  { "size": "128" },
                  { "size": "64" }
                ]
              }
            }
          },
          "dtype": { "type": "DT_FLOAT" }
        }
      },
      {
        "name": "3219",
        "op": "Const",
        "attr": {
          "value": {
            "tensor": {
              "dtype": "DT_FLOAT",
              "tensorShape": { "dim": [{ "size": "64" }] }
            }
          },
          "dtype": { "type": "DT_FLOAT" }
        }
      },
      {
        "name": "3231",
        "op": "Const",
        "attr": {
          "value": {
            "tensor": {
              "dtype": "DT_FLOAT",
              "tensorShape": {
                "dim": [
                  { "size": "3" },
                  { "size": "3" },
                  { "size": "64" },
                  { "size": "64" }
                ]
              }
            }
          },
          "dtype": { "type": "DT_FLOAT" }
        }
      },
      {
        "name": "3243",
        "op": "Const",
        "attr": {
          "value": {
            "tensor": {
              "dtype": "DT_FLOAT",
              "tensorShape": { "dim": [{ "size": "64" }] }
            }
          },
          "dtype": { "type": "DT_FLOAT" }
        }
      },
      {
        "name": "3255",
        "op": "Const",
        "attr": {
          "value": {
            "tensor": {
              "dtype": "DT_FLOAT",
              "tensorShape": {
                "dim": [
                  { "size": "1" },
                  { "size": "1" },
                  { "size": "64" },
                  { "size": "64" }
                ]
              }
            }
          },
          "dtype": { "type": "DT_FLOAT" }
        }
      },
      {
        "name": "3265",
        "op": "Const",
        "attr": {
          "value": {
            "tensor": {
              "dtype": "DT_FLOAT",
              "tensorShape": { "dim": [{ "size": "64" }] }
            }
          },
          "dtype": { "type": "DT_FLOAT" }
        }
      },
      {
        "name": "3205",
        "op": "Const",
        "attr": {
          "value": {
            "tensor": {
              "dtype": "DT_FLOAT",
              "tensorShape": {
                "dim": [
                  { "size": "3" },
                  { "size": "3" },
                  { "size": "128" },
                  { "size": "64" }
                ]
              }
            }
          },
          "dtype": { "type": "DT_FLOAT" }
        }
      },
      {
        "name": "3217",
        "op": "Const",
        "attr": {
          "value": {
            "tensor": {
              "dtype": "DT_FLOAT",
              "tensorShape": { "dim": [{ "size": "64" }] }
            }
          },
          "dtype": { "type": "DT_FLOAT" }
        }
      },
      {
        "name": "3229",
        "op": "Const",
        "attr": {
          "value": {
            "tensor": {
              "dtype": "DT_FLOAT",
              "tensorShape": {
                "dim": [
                  { "size": "3" },
                  { "size": "3" },
                  { "size": "64" },
                  { "size": "64" }
                ]
              }
            }
          },
          "dtype": { "type": "DT_FLOAT" }
        }
      },
      {
        "name": "3241",
        "op": "Const",
        "attr": {
          "value": {
            "tensor": {
              "dtype": "DT_FLOAT",
              "tensorShape": { "dim": [{ "size": "64" }] }
            }
          },
          "dtype": { "type": "DT_FLOAT" }
        }
      },
      {
        "name": "3253",
        "op": "Const",
        "attr": {
          "value": {
            "tensor": {
              "dtype": "DT_FLOAT",
              "tensorShape": {
                "dim": [
                  { "size": "1" },
                  { "size": "1" },
                  { "size": "64" },
                  { "size": "26" }
                ]
              }
            }
          },
          "dtype": { "type": "DT_FLOAT" }
        }
      },
      {
        "name": "3267",
        "op": "Const",
        "attr": {
          "value": {
            "tensor": {
              "dtype": "DT_FLOAT",
              "tensorShape": { "dim": [{ "size": "26" }] }
            }
          },
          "dtype": { "type": "DT_FLOAT" }
        }
      },
      {
        "name": "PartitionedCall/model_2/tf.concat_13/concat/axis",
        "op": "Const",
        "attr": {
          "value": { "tensor": { "dtype": "DT_INT32", "tensorShape": {} } },
          "dtype": { "type": "DT_INT32" }
        }
      },
      {
        "name": "PartitionedCall/model_2/tf.compat.v1.transpose_1/transpose/perm",
        "op": "Const",
        "attr": {
          "value": {
            "tensor": {
              "dtype": "DT_INT32",
              "tensorShape": { "dim": [{ "size": "4" }] }
            }
          },
          "dtype": { "type": "DT_INT32" }
        }
      },
      {
        "name": "PartitionedCall/model_2/tf.reshape_1/Reshape/shape",
        "op": "Const",
        "attr": {
          "value": {
            "tensor": {
              "dtype": "DT_INT32",
              "tensorShape": { "dim": [{ "size": "3" }] }
            }
          },
          "dtype": { "type": "DT_INT32" }
        }
      },
      {
        "name": "3203",
        "op": "Const",
        "attr": {
          "value": {
            "tensor": {
              "dtype": "DT_FLOAT",
              "tensorShape": {
                "dim": [
                  { "size": "3" },
                  { "size": "3" },
                  { "size": "256" },
                  { "size": "64" }
                ]
              }
            }
          },
          "dtype": { "type": "DT_FLOAT" }
        }
      },
      {
        "name": "3215",
        "op": "Const",
        "attr": {
          "value": {
            "tensor": {
              "dtype": "DT_FLOAT",
              "tensorShape": { "dim": [{ "size": "64" }] }
            }
          },
          "dtype": { "type": "DT_FLOAT" }
        }
      },
      {
        "name": "3227",
        "op": "Const",
        "attr": {
          "value": {
            "tensor": {
              "dtype": "DT_FLOAT",
              "tensorShape": {
                "dim": [
                  { "size": "3" },
                  { "size": "3" },
                  { "size": "64" },
                  { "size": "64" }
                ]
              }
            }
          },
          "dtype": { "type": "DT_FLOAT" }
        }
      },
      {
        "name": "3239",
        "op": "Const",
        "attr": {
          "value": {
            "tensor": {
              "dtype": "DT_FLOAT",
              "tensorShape": { "dim": [{ "size": "64" }] }
            }
          },
          "dtype": { "type": "DT_FLOAT" }
        }
      },
      {
        "name": "3251",
        "op": "Const",
        "attr": {
          "value": {
            "tensor": {
              "dtype": "DT_FLOAT",
              "tensorShape": {
                "dim": [
                  { "size": "1" },
                  { "size": "1" },
                  { "size": "64" },
                  { "size": "64" }
                ]
              }
            }
          },
          "dtype": { "type": "DT_FLOAT" }
        }
      },
      {
        "name": "3261",
        "op": "Const",
        "attr": {
          "value": {
            "tensor": {
              "dtype": "DT_FLOAT",
              "tensorShape": { "dim": [{ "size": "64" }] }
            }
          },
          "dtype": { "type": "DT_FLOAT" }
        }
      },
      {
        "name": "3193",
        "op": "Const",
        "attr": {
          "value": {
            "tensor": {
              "dtype": "DT_INT64",
              "tensorShape": { "dim": [{ "size": "4" }] }
            }
          },
          "dtype": { "type": "DT_INT64" }
        }
      },
      {
        "name": "3195",
        "op": "Const",
        "attr": {
          "value": {
            "tensor": {
              "dtype": "DT_INT64",
              "tensorShape": { "dim": [{ "size": "4" }] }
            }
          },
          "dtype": { "type": "DT_INT64" }
        }
      },
      {
        "name": "PartitionedCall/model_2/tf.strided_slice_14/ones_like",
        "op": "Const",
        "attr": {
          "value": {
            "tensor": {
              "dtype": "DT_INT64",
              "tensorShape": { "dim": [{ "size": "4" }] }
            }
          },
          "dtype": { "type": "DT_INT64" }
        }
      },
      {
        "name": "3163",
        "op": "Const",
        "attr": {
          "value": {
            "tensor": {
              "dtype": "DT_INT64",
              "tensorShape": { "dim": [{ "size": "4" }] }
            }
          },
          "dtype": { "type": "DT_INT64" }
        }
      },
      {
        "name": "3165",
        "op": "Const",
        "attr": {
          "value": {
            "tensor": {
              "dtype": "DT_INT64",
              "tensorShape": { "dim": [{ "size": "4" }] }
            }
          },
          "dtype": { "type": "DT_INT64" }
        }
      },
      {
        "name": "PartitionedCall/model_2/tf.strided_slice_12/ones_like",
        "op": "Const",
        "attr": {
          "value": {
            "tensor": {
              "dtype": "DT_INT64",
              "tensorShape": { "dim": [{ "size": "4" }] }
            }
          },
          "dtype": { "type": "DT_INT64" }
        }
      },
      {
        "name": "3133",
        "op": "Const",
        "attr": {
          "value": {
            "tensor": {
              "dtype": "DT_INT64",
              "tensorShape": { "dim": [{ "size": "4" }] }
            }
          },
          "dtype": { "type": "DT_INT64" }
        }
      },
      {
        "name": "3135",
        "op": "Const",
        "attr": {
          "value": {
            "tensor": {
              "dtype": "DT_INT64",
              "tensorShape": { "dim": [{ "size": "4" }] }
            }
          },
          "dtype": { "type": "DT_INT64" }
        }
      },
      {
        "name": "PartitionedCall/model_2/tf.strided_slice_10/ones_like",
        "op": "Const",
        "attr": {
          "value": {
            "tensor": {
              "dtype": "DT_INT64",
              "tensorShape": { "dim": [{ "size": "4" }] }
            }
          },
          "dtype": { "type": "DT_INT64" }
        }
      },
      {
        "name": "PartitionedCall/model_2/lambda_1//model.13/Resize/size",
        "op": "Const",
        "attr": {
          "value": {
            "tensor": {
              "dtype": "DT_INT32",
              "tensorShape": { "dim": [{ "size": "2" }] }
            }
          },
          "dtype": { "type": "DT_INT32" }
        }
      },
      {
        "name": "PartitionedCall/model_2/tf.concat_7/concat/axis",
        "op": "Const",
        "attr": {
          "value": { "tensor": { "dtype": "DT_INT32", "tensorShape": {} } },
          "dtype": { "type": "DT_INT32" }
        }
      },
      {
        "name": "3117",
        "op": "Const",
        "attr": {
          "value": {
            "tensor": {
              "dtype": "DT_FLOAT",
              "tensorShape": {
                "dim": [
                  { "size": "1" },
                  { "size": "1" },
                  { "size": "192" },
                  { "size": "64" }
                ]
              }
            }
          },
          "dtype": { "type": "DT_FLOAT" }
        }
      },
      {
        "name": "3119",
        "op": "Const",
        "attr": {
          "value": {
            "tensor": {
              "dtype": "DT_FLOAT",
              "tensorShape": { "dim": [{ "size": "64" }] }
            }
          },
          "dtype": { "type": "DT_FLOAT" }
        }
      },
      {
        "name": "3121",
        "op": "Const",
        "attr": {
          "value": {
            "tensor": {
              "dtype": "DT_INT64",
              "tensorShape": { "dim": [{ "size": "4" }] }
            }
          },
          "dtype": { "type": "DT_INT64" }
        }
      },
      {
        "name": "3123",
        "op": "Const",
        "attr": {
          "value": {
            "tensor": {
              "dtype": "DT_INT64",
              "tensorShape": { "dim": [{ "size": "4" }] }
            }
          },
          "dtype": { "type": "DT_INT64" }
        }
      },
      {
        "name": "PartitionedCall/model_2/tf.strided_slice_11/ones_like",
        "op": "Const",
        "attr": {
          "value": {
            "tensor": {
              "dtype": "DT_INT64",
              "tensorShape": { "dim": [{ "size": "4" }] }
            }
          },
          "dtype": { "type": "DT_INT64" }
        }
      },
      {
        "name": "3125",
        "op": "Const",
        "attr": {
          "value": {
            "tensor": {
              "dtype": "DT_FLOAT",
              "tensorShape": {
                "dim": [
                  { "size": "3" },
                  { "size": "3" },
                  { "size": "32" },
                  { "size": "32" }
                ]
              }
            }
          },
          "dtype": { "type": "DT_FLOAT" }
        }
      },
      {
        "name": "3127",
        "op": "Const",
        "attr": {
          "value": {
            "tensor": {
              "dtype": "DT_FLOAT",
              "tensorShape": { "dim": [{ "size": "32" }] }
            }
          },
          "dtype": { "type": "DT_FLOAT" }
        }
      },
      {
        "name": "3129",
        "op": "Const",
        "attr": {
          "value": {
            "tensor": {
              "dtype": "DT_FLOAT",
              "tensorShape": {
                "dim": [
                  { "size": "3" },
                  { "size": "3" },
                  { "size": "32" },
                  { "size": "32" }
                ]
              }
            }
          },
          "dtype": { "type": "DT_FLOAT" }
        }
      },
      {
        "name": "3131",
        "op": "Const",
        "attr": {
          "value": {
            "tensor": {
              "dtype": "DT_FLOAT",
              "tensorShape": { "dim": [{ "size": "32" }] }
            }
          },
          "dtype": { "type": "DT_FLOAT" }
        }
      },
      {
        "name": "PartitionedCall/model_2/tf.concat_8/concat/axis",
        "op": "Const",
        "attr": {
          "value": { "tensor": { "dtype": "DT_INT32", "tensorShape": {} } },
          "dtype": { "type": "DT_INT32" }
        }
      },
      {
        "name": "3137",
        "op": "Const",
        "attr": {
          "value": {
            "tensor": {
              "dtype": "DT_FLOAT",
              "tensorShape": {
                "dim": [
                  { "size": "1" },
                  { "size": "1" },
                  { "size": "96" },
                  { "size": "64" }
                ]
              }
            }
          },
          "dtype": { "type": "DT_FLOAT" }
        }
      },
      {
        "name": "3139",
        "op": "Const",
        "attr": {
          "value": {
            "tensor": {
              "dtype": "DT_FLOAT",
              "tensorShape": { "dim": [{ "size": "64" }] }
            }
          },
          "dtype": { "type": "DT_FLOAT" }
        }
      },
      {
        "name": "3141",
        "op": "Const",
        "attr": {
          "value": {
            "tensor": {
              "dtype": "DT_INT32",
              "tensorShape": { "dim": [{ "size": "4" }, { "size": "2" }] }
            }
          },
          "dtype": { "type": "DT_INT32" }
        }
      },
      {
        "name": "3143",
        "op": "Const",
        "attr": {
          "value": {
            "tensor": {
              "dtype": "DT_FLOAT",
              "tensorShape": {
                "dim": [
                  { "size": "3" },
                  { "size": "3" },
                  { "size": "64" },
                  { "size": "64" }
                ]
              }
            }
          },
          "dtype": { "type": "DT_FLOAT" }
        }
      },
      {
        "name": "3145",
        "op": "Const",
        "attr": {
          "value": {
            "tensor": {
              "dtype": "DT_FLOAT",
              "tensorShape": { "dim": [{ "size": "64" }] }
            }
          },
          "dtype": { "type": "DT_FLOAT" }
        }
      },
      {
        "name": "3109",
        "op": "Const",
        "attr": {
          "value": {
            "tensor": {
              "dtype": "DT_INT64",
              "tensorShape": { "dim": [{ "size": "4" }] }
            }
          },
          "dtype": { "type": "DT_INT64" }
        }
      },
      {
        "name": "3111",
        "op": "Const",
        "attr": {
          "value": {
            "tensor": {
              "dtype": "DT_INT64",
              "tensorShape": { "dim": [{ "size": "4" }] }
            }
          },
          "dtype": { "type": "DT_INT64" }
        }
      },
      {
        "name": "PartitionedCall/model_2/tf.strided_slice_8/ones_like",
        "op": "Const",
        "attr": {
          "value": {
            "tensor": {
              "dtype": "DT_INT64",
              "tensorShape": { "dim": [{ "size": "4" }] }
            }
          },
          "dtype": { "type": "DT_INT64" }
        }
      },
      {
        "name": "PartitionedCall/model_2/lambda//model.10/Resize/size",
        "op": "Const",
        "attr": {
          "value": {
            "tensor": {
              "dtype": "DT_INT32",
              "tensorShape": { "dim": [{ "size": "2" }] }
            }
          },
          "dtype": { "type": "DT_INT32" }
        }
      },
      {
        "name": "PartitionedCall/model_2/tf.concat_5/concat/axis",
        "op": "Const",
        "attr": {
          "value": { "tensor": { "dtype": "DT_INT32", "tensorShape": {} } },
          "dtype": { "type": "DT_INT32" }
        }
      },
      {
        "name": "3093",
        "op": "Const",
        "attr": {
          "value": {
            "tensor": {
              "dtype": "DT_FLOAT",
              "tensorShape": {
                "dim": [
                  { "size": "1" },
                  { "size": "1" },
                  { "size": "384" },
                  { "size": "128" }
                ]
              }
            }
          },
          "dtype": { "type": "DT_FLOAT" }
        }
      },
      {
        "name": "3095",
        "op": "Const",
        "attr": {
          "value": {
            "tensor": {
              "dtype": "DT_FLOAT",
              "tensorShape": { "dim": [{ "size": "128" }] }
            }
          },
          "dtype": { "type": "DT_FLOAT" }
        }
      },
      {
        "name": "3097",
        "op": "Const",
        "attr": {
          "value": {
            "tensor": {
              "dtype": "DT_INT64",
              "tensorShape": { "dim": [{ "size": "4" }] }
            }
          },
          "dtype": { "type": "DT_INT64" }
        }
      },
      {
        "name": "3099",
        "op": "Const",
        "attr": {
          "value": {
            "tensor": {
              "dtype": "DT_INT64",
              "tensorShape": { "dim": [{ "size": "4" }] }
            }
          },
          "dtype": { "type": "DT_INT64" }
        }
      },
      {
        "name": "PartitionedCall/model_2/tf.strided_slice_9/ones_like",
        "op": "Const",
        "attr": {
          "value": {
            "tensor": {
              "dtype": "DT_INT64",
              "tensorShape": { "dim": [{ "size": "4" }] }
            }
          },
          "dtype": { "type": "DT_INT64" }
        }
      },
      {
        "name": "3101",
        "op": "Const",
        "attr": {
          "value": {
            "tensor": {
              "dtype": "DT_FLOAT",
              "tensorShape": {
                "dim": [
                  { "size": "3" },
                  { "size": "3" },
                  { "size": "64" },
                  { "size": "64" }
                ]
              }
            }
          },
          "dtype": { "type": "DT_FLOAT" }
        }
      },
      {
        "name": "3103",
        "op": "Const",
        "attr": {
          "value": {
            "tensor": {
              "dtype": "DT_FLOAT",
              "tensorShape": { "dim": [{ "size": "64" }] }
            }
          },
          "dtype": { "type": "DT_FLOAT" }
        }
      },
      {
        "name": "3105",
        "op": "Const",
        "attr": {
          "value": {
            "tensor": {
              "dtype": "DT_FLOAT",
              "tensorShape": {
                "dim": [
                  { "size": "3" },
                  { "size": "3" },
                  { "size": "64" },
                  { "size": "64" }
                ]
              }
            }
          },
          "dtype": { "type": "DT_FLOAT" }
        }
      },
      {
        "name": "3107",
        "op": "Const",
        "attr": {
          "value": {
            "tensor": {
              "dtype": "DT_FLOAT",
              "tensorShape": { "dim": [{ "size": "64" }] }
            }
          },
          "dtype": { "type": "DT_FLOAT" }
        }
      },
      {
        "name": "PartitionedCall/model_2/tf.concat_6/concat/axis",
        "op": "Const",
        "attr": {
          "value": { "tensor": { "dtype": "DT_INT32", "tensorShape": {} } },
          "dtype": { "type": "DT_INT32" }
        }
      },
      {
        "name": "3113",
        "op": "Const",
        "attr": {
          "value": {
            "tensor": {
              "dtype": "DT_FLOAT",
              "tensorShape": {
                "dim": [
                  { "size": "1" },
                  { "size": "1" },
                  { "size": "192" },
                  { "size": "128" }
                ]
              }
            }
          },
          "dtype": { "type": "DT_FLOAT" }
        }
      },
      {
        "name": "3115",
        "op": "Const",
        "attr": {
          "value": {
            "tensor": {
              "dtype": "DT_FLOAT",
              "tensorShape": { "dim": [{ "size": "128" }] }
            }
          },
          "dtype": { "type": "DT_FLOAT" }
        }
      },
      {
        "name": "PartitionedCall/model_2/tf.concat_9/concat/axis",
        "op": "Const",
        "attr": {
          "value": { "tensor": { "dtype": "DT_INT32", "tensorShape": {} } },
          "dtype": { "type": "DT_INT32" }
        }
      },
      {
        "name": "3147",
        "op": "Const",
        "attr": {
          "value": {
            "tensor": {
              "dtype": "DT_FLOAT",
              "tensorShape": {
                "dim": [
                  { "size": "1" },
                  { "size": "1" },
                  { "size": "192" },
                  { "size": "128" }
                ]
              }
            }
          },
          "dtype": { "type": "DT_FLOAT" }
        }
      },
      {
        "name": "3149",
        "op": "Const",
        "attr": {
          "value": {
            "tensor": {
              "dtype": "DT_FLOAT",
              "tensorShape": { "dim": [{ "size": "128" }] }
            }
          },
          "dtype": { "type": "DT_FLOAT" }
        }
      },
      {
        "name": "3151",
        "op": "Const",
        "attr": {
          "value": {
            "tensor": {
              "dtype": "DT_INT64",
              "tensorShape": { "dim": [{ "size": "4" }] }
            }
          },
          "dtype": { "type": "DT_INT64" }
        }
      },
      {
        "name": "3153",
        "op": "Const",
        "attr": {
          "value": {
            "tensor": {
              "dtype": "DT_INT64",
              "tensorShape": { "dim": [{ "size": "4" }] }
            }
          },
          "dtype": { "type": "DT_INT64" }
        }
      },
      {
        "name": "PartitionedCall/model_2/tf.strided_slice_13/ones_like",
        "op": "Const",
        "attr": {
          "value": {
            "tensor": {
              "dtype": "DT_INT64",
              "tensorShape": { "dim": [{ "size": "4" }] }
            }
          },
          "dtype": { "type": "DT_INT64" }
        }
      },
      {
        "name": "3155",
        "op": "Const",
        "attr": {
          "value": {
            "tensor": {
              "dtype": "DT_FLOAT",
              "tensorShape": {
                "dim": [
                  { "size": "3" },
                  { "size": "3" },
                  { "size": "64" },
                  { "size": "64" }
                ]
              }
            }
          },
          "dtype": { "type": "DT_FLOAT" }
        }
      },
      {
        "name": "3157",
        "op": "Const",
        "attr": {
          "value": {
            "tensor": {
              "dtype": "DT_FLOAT",
              "tensorShape": { "dim": [{ "size": "64" }] }
            }
          },
          "dtype": { "type": "DT_FLOAT" }
        }
      },
      {
        "name": "3159",
        "op": "Const",
        "attr": {
          "value": {
            "tensor": {
              "dtype": "DT_FLOAT",
              "tensorShape": {
                "dim": [
                  { "size": "3" },
                  { "size": "3" },
                  { "size": "64" },
                  { "size": "64" }
                ]
              }
            }
          },
          "dtype": { "type": "DT_FLOAT" }
        }
      },
      {
        "name": "3161",
        "op": "Const",
        "attr": {
          "value": {
            "tensor": {
              "dtype": "DT_FLOAT",
              "tensorShape": { "dim": [{ "size": "64" }] }
            }
          },
          "dtype": { "type": "DT_FLOAT" }
        }
      },
      {
        "name": "PartitionedCall/model_2/tf.concat_11/concat/axis",
        "op": "Const",
        "attr": {
          "value": { "tensor": { "dtype": "DT_INT32", "tensorShape": {} } },
          "dtype": { "type": "DT_INT32" }
        }
      },
      {
        "name": "3167",
        "op": "Const",
        "attr": {
          "value": {
            "tensor": {
              "dtype": "DT_FLOAT",
              "tensorShape": {
                "dim": [
                  { "size": "1" },
                  { "size": "1" },
                  { "size": "192" },
                  { "size": "128" }
                ]
              }
            }
          },
          "dtype": { "type": "DT_FLOAT" }
        }
      },
      {
        "name": "3169",
        "op": "Const",
        "attr": {
          "value": {
            "tensor": {
              "dtype": "DT_FLOAT",
              "tensorShape": { "dim": [{ "size": "128" }] }
            }
          },
          "dtype": { "type": "DT_FLOAT" }
        }
      },
      {
        "name": "3171",
        "op": "Const",
        "attr": {
          "value": {
            "tensor": {
              "dtype": "DT_INT32",
              "tensorShape": { "dim": [{ "size": "4" }, { "size": "2" }] }
            }
          },
          "dtype": { "type": "DT_INT32" }
        }
      },
      {
        "name": "3173",
        "op": "Const",
        "attr": {
          "value": {
            "tensor": {
              "dtype": "DT_FLOAT",
              "tensorShape": {
                "dim": [
                  { "size": "3" },
                  { "size": "3" },
                  { "size": "128" },
                  { "size": "128" }
                ]
              }
            }
          },
          "dtype": { "type": "DT_FLOAT" }
        }
      },
      {
        "name": "3175",
        "op": "Const",
        "attr": {
          "value": {
            "tensor": {
              "dtype": "DT_FLOAT",
              "tensorShape": { "dim": [{ "size": "128" }] }
            }
          },
          "dtype": { "type": "DT_FLOAT" }
        }
      },
      {
        "name": "3077",
        "op": "Const",
        "attr": {
          "value": {
            "tensor": {
              "dtype": "DT_INT64",
              "tensorShape": { "dim": [{ "size": "4" }] }
            }
          },
          "dtype": { "type": "DT_INT64" }
        }
      },
      {
        "name": "3079",
        "op": "Const",
        "attr": {
          "value": {
            "tensor": {
              "dtype": "DT_INT64",
              "tensorShape": { "dim": [{ "size": "4" }] }
            }
          },
          "dtype": { "type": "DT_INT64" }
        }
      },
      {
        "name": "PartitionedCall/model_2/tf.strided_slice_6/ones_like",
        "op": "Const",
        "attr": {
          "value": {
            "tensor": {
              "dtype": "DT_INT64",
              "tensorShape": { "dim": [{ "size": "4" }] }
            }
          },
          "dtype": { "type": "DT_INT64" }
        }
      },
      {
        "name": "3047",
        "op": "Const",
        "attr": {
          "value": {
            "tensor": {
              "dtype": "DT_INT64",
              "tensorShape": { "dim": [{ "size": "4" }] }
            }
          },
          "dtype": { "type": "DT_INT64" }
        }
      },
      {
        "name": "3049",
        "op": "Const",
        "attr": {
          "value": {
            "tensor": {
              "dtype": "DT_INT64",
              "tensorShape": { "dim": [{ "size": "4" }] }
            }
          },
          "dtype": { "type": "DT_INT64" }
        }
      },
      {
        "name": "PartitionedCall/model_2/tf.strided_slice_4/ones_like",
        "op": "Const",
        "attr": {
          "value": {
            "tensor": {
              "dtype": "DT_INT64",
              "tensorShape": { "dim": [{ "size": "4" }] }
            }
          },
          "dtype": { "type": "DT_INT64" }
        }
      },
      {
        "name": "3009",
        "op": "Const",
        "attr": {
          "value": {
            "tensor": {
              "dtype": "DT_INT64",
              "tensorShape": { "dim": [{ "size": "4" }] }
            }
          },
          "dtype": { "type": "DT_INT64" }
        }
      },
      {
        "name": "3011",
        "op": "Const",
        "attr": {
          "value": {
            "tensor": {
              "dtype": "DT_INT64",
              "tensorShape": { "dim": [{ "size": "4" }] }
            }
          },
          "dtype": { "type": "DT_INT64" }
        }
      },
      {
        "name": "PartitionedCall/model_2/tf.strided_slice_2/ones_like",
        "op": "Const",
        "attr": {
          "value": {
            "tensor": {
              "dtype": "DT_INT64",
              "tensorShape": { "dim": [{ "size": "4" }] }
            }
          },
          "dtype": { "type": "DT_INT64" }
        }
      },
      {
        "name": "2971",
        "op": "Const",
        "attr": {
          "value": {
            "tensor": {
              "dtype": "DT_INT64",
              "tensorShape": { "dim": [{ "size": "4" }] }
            }
          },
          "dtype": { "type": "DT_INT64" }
        }
      },
      {
        "name": "2973",
        "op": "Const",
        "attr": {
          "value": {
            "tensor": {
              "dtype": "DT_INT64",
              "tensorShape": { "dim": [{ "size": "4" }] }
            }
          },
          "dtype": { "type": "DT_INT64" }
        }
      },
      {
        "name": "PartitionedCall/model_2/tf.strided_slice/ones_like",
        "op": "Const",
        "attr": {
          "value": {
            "tensor": {
              "dtype": "DT_INT64",
              "tensorShape": { "dim": [{ "size": "4" }] }
            }
          },
          "dtype": { "type": "DT_INT64" }
        }
      },
      {
        "name": "2943",
        "op": "Const",
        "attr": {
          "value": {
            "tensor": {
              "dtype": "DT_INT32",
              "tensorShape": { "dim": [{ "size": "4" }, { "size": "2" }] }
            }
          },
          "dtype": { "type": "DT_INT32" }
        }
      },
      {
        "name": "2945",
        "op": "Const",
        "attr": {
          "value": {
            "tensor": {
              "dtype": "DT_FLOAT",
              "tensorShape": {
                "dim": [
                  { "size": "3" },
                  { "size": "3" },
                  { "size": "3" },
                  { "size": "16" }
                ]
              }
            }
          },
          "dtype": { "type": "DT_FLOAT" }
        }
      },
      {
        "name": "2947",
        "op": "Const",
        "attr": {
          "value": {
            "tensor": {
              "dtype": "DT_FLOAT",
              "tensorShape": { "dim": [{ "size": "16" }] }
            }
          },
          "dtype": { "type": "DT_FLOAT" }
        }
      },
      {
        "name": "2949",
        "op": "Const",
        "attr": {
          "value": {
            "tensor": {
              "dtype": "DT_INT32",
              "tensorShape": { "dim": [{ "size": "4" }, { "size": "2" }] }
            }
          },
          "dtype": { "type": "DT_INT32" }
        }
      },
      {
        "name": "2951",
        "op": "Const",
        "attr": {
          "value": {
            "tensor": {
              "dtype": "DT_FLOAT",
              "tensorShape": {
                "dim": [
                  { "size": "3" },
                  { "size": "3" },
                  { "size": "16" },
                  { "size": "32" }
                ]
              }
            }
          },
          "dtype": { "type": "DT_FLOAT" }
        }
      },
      {
        "name": "2953",
        "op": "Const",
        "attr": {
          "value": {
            "tensor": {
              "dtype": "DT_FLOAT",
              "tensorShape": { "dim": [{ "size": "32" }] }
            }
          },
          "dtype": { "type": "DT_FLOAT" }
        }
      },
      {
        "name": "2955",
        "op": "Const",
        "attr": {
          "value": {
            "tensor": {
              "dtype": "DT_FLOAT",
              "tensorShape": {
                "dim": [
                  { "size": "1" },
                  { "size": "1" },
                  { "size": "32" },
                  { "size": "32" }
                ]
              }
            }
          },
          "dtype": { "type": "DT_FLOAT" }
        }
      },
      {
        "name": "2957",
        "op": "Const",
        "attr": {
          "value": {
            "tensor": {
              "dtype": "DT_FLOAT",
              "tensorShape": { "dim": [{ "size": "32" }] }
            }
          },
          "dtype": { "type": "DT_FLOAT" }
        }
      },
      {
        "name": "2959",
        "op": "Const",
        "attr": {
          "value": {
            "tensor": {
              "dtype": "DT_INT64",
              "tensorShape": { "dim": [{ "size": "4" }] }
            }
          },
          "dtype": { "type": "DT_INT64" }
        }
      },
      {
        "name": "2961",
        "op": "Const",
        "attr": {
          "value": {
            "tensor": {
              "dtype": "DT_INT64",
              "tensorShape": { "dim": [{ "size": "4" }] }
            }
          },
          "dtype": { "type": "DT_INT64" }
        }
      },
      {
        "name": "PartitionedCall/model_2/tf.strided_slice_1/ones_like",
        "op": "Const",
        "attr": {
          "value": {
            "tensor": {
              "dtype": "DT_INT64",
              "tensorShape": { "dim": [{ "size": "4" }] }
            }
          },
          "dtype": { "type": "DT_INT64" }
        }
      },
      {
        "name": "2963",
        "op": "Const",
        "attr": {
          "value": {
            "tensor": {
              "dtype": "DT_FLOAT",
              "tensorShape": {
                "dim": [
                  { "size": "3" },
                  { "size": "3" },
                  { "size": "16" },
                  { "size": "16" }
                ]
              }
            }
          },
          "dtype": { "type": "DT_FLOAT" }
        }
      },
      {
        "name": "2965",
        "op": "Const",
        "attr": {
          "value": {
            "tensor": {
              "dtype": "DT_FLOAT",
              "tensorShape": { "dim": [{ "size": "16" }] }
            }
          },
          "dtype": { "type": "DT_FLOAT" }
        }
      },
      {
        "name": "2967",
        "op": "Const",
        "attr": {
          "value": {
            "tensor": {
              "dtype": "DT_FLOAT",
              "tensorShape": {
                "dim": [
                  { "size": "3" },
                  { "size": "3" },
                  { "size": "16" },
                  { "size": "16" }
                ]
              }
            }
          },
          "dtype": { "type": "DT_FLOAT" }
        }
      },
      {
        "name": "2969",
        "op": "Const",
        "attr": {
          "value": {
            "tensor": {
              "dtype": "DT_FLOAT",
              "tensorShape": { "dim": [{ "size": "16" }] }
            }
          },
          "dtype": { "type": "DT_FLOAT" }
        }
      },
      {
        "name": "PartitionedCall/model_2/tf.concat/concat/axis",
        "op": "Const",
        "attr": {
          "value": { "tensor": { "dtype": "DT_INT32", "tensorShape": {} } },
          "dtype": { "type": "DT_INT32" }
        }
      },
      {
        "name": "2975",
        "op": "Const",
        "attr": {
          "value": {
            "tensor": {
              "dtype": "DT_FLOAT",
              "tensorShape": {
                "dim": [
                  { "size": "1" },
                  { "size": "1" },
                  { "size": "48" },
                  { "size": "32" }
                ]
              }
            }
          },
          "dtype": { "type": "DT_FLOAT" }
        }
      },
      {
        "name": "2977",
        "op": "Const",
        "attr": {
          "value": {
            "tensor": {
              "dtype": "DT_FLOAT",
              "tensorShape": { "dim": [{ "size": "32" }] }
            }
          },
          "dtype": { "type": "DT_FLOAT" }
        }
      },
      {
        "name": "2979",
        "op": "Const",
        "attr": {
          "value": {
            "tensor": {
              "dtype": "DT_INT32",
              "tensorShape": { "dim": [{ "size": "4" }, { "size": "2" }] }
            }
          },
          "dtype": { "type": "DT_INT32" }
        }
      },
      {
        "name": "2981",
        "op": "Const",
        "attr": {
          "value": {
            "tensor": {
              "dtype": "DT_FLOAT",
              "tensorShape": {
                "dim": [
                  { "size": "3" },
                  { "size": "3" },
                  { "size": "32" },
                  { "size": "64" }
                ]
              }
            }
          },
          "dtype": { "type": "DT_FLOAT" }
        }
      },
      {
        "name": "2983",
        "op": "Const",
        "attr": {
          "value": {
            "tensor": {
              "dtype": "DT_FLOAT",
              "tensorShape": { "dim": [{ "size": "64" }] }
            }
          },
          "dtype": { "type": "DT_FLOAT" }
        }
      },
      {
        "name": "2985",
        "op": "Const",
        "attr": {
          "value": {
            "tensor": {
              "dtype": "DT_FLOAT",
              "tensorShape": {
                "dim": [
                  { "size": "1" },
                  { "size": "1" },
                  { "size": "64" },
                  { "size": "64" }
                ]
              }
            }
          },
          "dtype": { "type": "DT_FLOAT" }
        }
      },
      {
        "name": "2987",
        "op": "Const",
        "attr": {
          "value": {
            "tensor": {
              "dtype": "DT_FLOAT",
              "tensorShape": { "dim": [{ "size": "64" }] }
            }
          },
          "dtype": { "type": "DT_FLOAT" }
        }
      },
      {
        "name": "2989",
        "op": "Const",
        "attr": {
          "value": {
            "tensor": {
              "dtype": "DT_INT64",
              "tensorShape": { "dim": [{ "size": "4" }] }
            }
          },
          "dtype": { "type": "DT_INT64" }
        }
      },
      {
        "name": "2991",
        "op": "Const",
        "attr": {
          "value": {
            "tensor": {
              "dtype": "DT_INT64",
              "tensorShape": { "dim": [{ "size": "4" }] }
            }
          },
          "dtype": { "type": "DT_INT64" }
        }
      },
      {
        "name": "PartitionedCall/model_2/tf.strided_slice_3/ones_like",
        "op": "Const",
        "attr": {
          "value": {
            "tensor": {
              "dtype": "DT_INT64",
              "tensorShape": { "dim": [{ "size": "4" }] }
            }
          },
          "dtype": { "type": "DT_INT64" }
        }
      },
      {
        "name": "2993",
        "op": "Const",
        "attr": {
          "value": {
            "tensor": {
              "dtype": "DT_FLOAT",
              "tensorShape": {
                "dim": [
                  { "size": "3" },
                  { "size": "3" },
                  { "size": "32" },
                  { "size": "32" }
                ]
              }
            }
          },
          "dtype": { "type": "DT_FLOAT" }
        }
      },
      {
        "name": "2995",
        "op": "Const",
        "attr": {
          "value": {
            "tensor": {
              "dtype": "DT_FLOAT",
              "tensorShape": { "dim": [{ "size": "32" }] }
            }
          },
          "dtype": { "type": "DT_FLOAT" }
        }
      },
      {
        "name": "2997",
        "op": "Const",
        "attr": {
          "value": {
            "tensor": {
              "dtype": "DT_FLOAT",
              "tensorShape": {
                "dim": [
                  { "size": "3" },
                  { "size": "3" },
                  { "size": "32" },
                  { "size": "32" }
                ]
              }
            }
          },
          "dtype": { "type": "DT_FLOAT" }
        }
      },
      {
        "name": "2999",
        "op": "Const",
        "attr": {
          "value": {
            "tensor": {
              "dtype": "DT_FLOAT",
              "tensorShape": { "dim": [{ "size": "32" }] }
            }
          },
          "dtype": { "type": "DT_FLOAT" }
        }
      },
      {
        "name": "3001",
        "op": "Const",
        "attr": {
          "value": {
            "tensor": {
              "dtype": "DT_FLOAT",
              "tensorShape": {
                "dim": [
                  { "size": "3" },
                  { "size": "3" },
                  { "size": "32" },
                  { "size": "32" }
                ]
              }
            }
          },
          "dtype": { "type": "DT_FLOAT" }
        }
      },
      {
        "name": "3003",
        "op": "Const",
        "attr": {
          "value": {
            "tensor": {
              "dtype": "DT_FLOAT",
              "tensorShape": { "dim": [{ "size": "32" }] }
            }
          },
          "dtype": { "type": "DT_FLOAT" }
        }
      },
      {
        "name": "3005",
        "op": "Const",
        "attr": {
          "value": {
            "tensor": {
              "dtype": "DT_FLOAT",
              "tensorShape": {
                "dim": [
                  { "size": "3" },
                  { "size": "3" },
                  { "size": "32" },
                  { "size": "32" }
                ]
              }
            }
          },
          "dtype": { "type": "DT_FLOAT" }
        }
      },
      {
        "name": "3007",
        "op": "Const",
        "attr": {
          "value": {
            "tensor": {
              "dtype": "DT_FLOAT",
              "tensorShape": { "dim": [{ "size": "32" }] }
            }
          },
          "dtype": { "type": "DT_FLOAT" }
        }
      },
      {
        "name": "PartitionedCall/model_2/tf.concat_1/concat/axis",
        "op": "Const",
        "attr": {
          "value": { "tensor": { "dtype": "DT_INT32", "tensorShape": {} } },
          "dtype": { "type": "DT_INT32" }
        }
      },
      {
        "name": "3013",
        "op": "Const",
        "attr": {
          "value": {
            "tensor": {
              "dtype": "DT_FLOAT",
              "tensorShape": {
                "dim": [
                  { "size": "1" },
                  { "size": "1" },
                  { "size": "128" },
                  { "size": "64" }
                ]
              }
            }
          },
          "dtype": { "type": "DT_FLOAT" }
        }
      },
      {
        "name": "3015",
        "op": "Const",
        "attr": {
          "value": {
            "tensor": {
              "dtype": "DT_FLOAT",
              "tensorShape": { "dim": [{ "size": "64" }] }
            }
          },
          "dtype": { "type": "DT_FLOAT" }
        }
      },
      {
        "name": "3017",
        "op": "Const",
        "attr": {
          "value": {
            "tensor": {
              "dtype": "DT_INT32",
              "tensorShape": { "dim": [{ "size": "4" }, { "size": "2" }] }
            }
          },
          "dtype": { "type": "DT_INT32" }
        }
      },
      {
        "name": "3019",
        "op": "Const",
        "attr": {
          "value": {
            "tensor": {
              "dtype": "DT_FLOAT",
              "tensorShape": {
                "dim": [
                  { "size": "3" },
                  { "size": "3" },
                  { "size": "64" },
                  { "size": "128" }
                ]
              }
            }
          },
          "dtype": { "type": "DT_FLOAT" }
        }
      },
      {
        "name": "3021",
        "op": "Const",
        "attr": {
          "value": {
            "tensor": {
              "dtype": "DT_FLOAT",
              "tensorShape": { "dim": [{ "size": "128" }] }
            }
          },
          "dtype": { "type": "DT_FLOAT" }
        }
      },
      {
        "name": "3023",
        "op": "Const",
        "attr": {
          "value": {
            "tensor": {
              "dtype": "DT_FLOAT",
              "tensorShape": {
                "dim": [
                  { "size": "1" },
                  { "size": "1" },
                  { "size": "128" },
                  { "size": "128" }
                ]
              }
            }
          },
          "dtype": { "type": "DT_FLOAT" }
        }
      },
      {
        "name": "3025",
        "op": "Const",
        "attr": {
          "value": {
            "tensor": {
              "dtype": "DT_FLOAT",
              "tensorShape": { "dim": [{ "size": "128" }] }
            }
          },
          "dtype": { "type": "DT_FLOAT" }
        }
      },
      {
        "name": "3027",
        "op": "Const",
        "attr": {
          "value": {
            "tensor": {
              "dtype": "DT_INT64",
              "tensorShape": { "dim": [{ "size": "4" }] }
            }
          },
          "dtype": { "type": "DT_INT64" }
        }
      },
      {
        "name": "3029",
        "op": "Const",
        "attr": {
          "value": {
            "tensor": {
              "dtype": "DT_INT64",
              "tensorShape": { "dim": [{ "size": "4" }] }
            }
          },
          "dtype": { "type": "DT_INT64" }
        }
      },
      {
        "name": "PartitionedCall/model_2/tf.strided_slice_5/ones_like",
        "op": "Const",
        "attr": {
          "value": {
            "tensor": {
              "dtype": "DT_INT64",
              "tensorShape": { "dim": [{ "size": "4" }] }
            }
          },
          "dtype": { "type": "DT_INT64" }
        }
      },
      {
        "name": "3031",
        "op": "Const",
        "attr": {
          "value": {
            "tensor": {
              "dtype": "DT_FLOAT",
              "tensorShape": {
                "dim": [
                  { "size": "3" },
                  { "size": "3" },
                  { "size": "64" },
                  { "size": "64" }
                ]
              }
            }
          },
          "dtype": { "type": "DT_FLOAT" }
        }
      },
      {
        "name": "3033",
        "op": "Const",
        "attr": {
          "value": {
            "tensor": {
              "dtype": "DT_FLOAT",
              "tensorShape": { "dim": [{ "size": "64" }] }
            }
          },
          "dtype": { "type": "DT_FLOAT" }
        }
      },
      {
        "name": "3035",
        "op": "Const",
        "attr": {
          "value": {
            "tensor": {
              "dtype": "DT_FLOAT",
              "tensorShape": {
                "dim": [
                  { "size": "3" },
                  { "size": "3" },
                  { "size": "64" },
                  { "size": "64" }
                ]
              }
            }
          },
          "dtype": { "type": "DT_FLOAT" }
        }
      },
      {
        "name": "3037",
        "op": "Const",
        "attr": {
          "value": {
            "tensor": {
              "dtype": "DT_FLOAT",
              "tensorShape": { "dim": [{ "size": "64" }] }
            }
          },
          "dtype": { "type": "DT_FLOAT" }
        }
      },
      {
        "name": "3039",
        "op": "Const",
        "attr": {
          "value": {
            "tensor": {
              "dtype": "DT_FLOAT",
              "tensorShape": {
                "dim": [
                  { "size": "3" },
                  { "size": "3" },
                  { "size": "64" },
                  { "size": "64" }
                ]
              }
            }
          },
          "dtype": { "type": "DT_FLOAT" }
        }
      },
      {
        "name": "3041",
        "op": "Const",
        "attr": {
          "value": {
            "tensor": {
              "dtype": "DT_FLOAT",
              "tensorShape": { "dim": [{ "size": "64" }] }
            }
          },
          "dtype": { "type": "DT_FLOAT" }
        }
      },
      {
        "name": "3043",
        "op": "Const",
        "attr": {
          "value": {
            "tensor": {
              "dtype": "DT_FLOAT",
              "tensorShape": {
                "dim": [
                  { "size": "3" },
                  { "size": "3" },
                  { "size": "64" },
                  { "size": "64" }
                ]
              }
            }
          },
          "dtype": { "type": "DT_FLOAT" }
        }
      },
      {
        "name": "3045",
        "op": "Const",
        "attr": {
          "value": {
            "tensor": {
              "dtype": "DT_FLOAT",
              "tensorShape": { "dim": [{ "size": "64" }] }
            }
          },
          "dtype": { "type": "DT_FLOAT" }
        }
      },
      {
        "name": "PartitionedCall/model_2/tf.concat_2/concat/axis",
        "op": "Const",
        "attr": {
          "value": { "tensor": { "dtype": "DT_INT32", "tensorShape": {} } },
          "dtype": { "type": "DT_INT32" }
        }
      },
      {
        "name": "3051",
        "op": "Const",
        "attr": {
          "value": {
            "tensor": {
              "dtype": "DT_FLOAT",
              "tensorShape": {
                "dim": [
                  { "size": "1" },
                  { "size": "1" },
                  { "size": "256" },
                  { "size": "128" }
                ]
              }
            }
          },
          "dtype": { "type": "DT_FLOAT" }
        }
      },
      {
        "name": "3053",
        "op": "Const",
        "attr": {
          "value": {
            "tensor": {
              "dtype": "DT_FLOAT",
              "tensorShape": { "dim": [{ "size": "128" }] }
            }
          },
          "dtype": { "type": "DT_FLOAT" }
        }
      },
      {
        "name": "3055",
        "op": "Const",
        "attr": {
          "value": {
            "tensor": {
              "dtype": "DT_INT32",
              "tensorShape": { "dim": [{ "size": "4" }, { "size": "2" }] }
            }
          },
          "dtype": { "type": "DT_INT32" }
        }
      },
      {
        "name": "3057",
        "op": "Const",
        "attr": {
          "value": {
            "tensor": {
              "dtype": "DT_FLOAT",
              "tensorShape": {
                "dim": [
                  { "size": "3" },
                  { "size": "3" },
                  { "size": "128" },
                  { "size": "256" }
                ]
              }
            }
          },
          "dtype": { "type": "DT_FLOAT" }
        }
      },
      {
        "name": "3059",
        "op": "Const",
        "attr": {
          "value": {
            "tensor": {
              "dtype": "DT_FLOAT",
              "tensorShape": { "dim": [{ "size": "256" }] }
            }
          },
          "dtype": { "type": "DT_FLOAT" }
        }
      },
      {
        "name": "3061",
        "op": "Const",
        "attr": {
          "value": {
            "tensor": {
              "dtype": "DT_FLOAT",
              "tensorShape": {
                "dim": [
                  { "size": "1" },
                  { "size": "1" },
                  { "size": "256" },
                  { "size": "256" }
                ]
              }
            }
          },
          "dtype": { "type": "DT_FLOAT" }
        }
      },
      {
        "name": "3063",
        "op": "Const",
        "attr": {
          "value": {
            "tensor": {
              "dtype": "DT_FLOAT",
              "tensorShape": { "dim": [{ "size": "256" }] }
            }
          },
          "dtype": { "type": "DT_FLOAT" }
        }
      },
      {
        "name": "3065",
        "op": "Const",
        "attr": {
          "value": {
            "tensor": {
              "dtype": "DT_INT64",
              "tensorShape": { "dim": [{ "size": "4" }] }
            }
          },
          "dtype": { "type": "DT_INT64" }
        }
      },
      {
        "name": "3067",
        "op": "Const",
        "attr": {
          "value": {
            "tensor": {
              "dtype": "DT_INT64",
              "tensorShape": { "dim": [{ "size": "4" }] }
            }
          },
          "dtype": { "type": "DT_INT64" }
        }
      },
      {
        "name": "PartitionedCall/model_2/tf.strided_slice_7/ones_like",
        "op": "Const",
        "attr": {
          "value": {
            "tensor": {
              "dtype": "DT_INT64",
              "tensorShape": { "dim": [{ "size": "4" }] }
            }
          },
          "dtype": { "type": "DT_INT64" }
        }
      },
      {
        "name": "3069",
        "op": "Const",
        "attr": {
          "value": {
            "tensor": {
              "dtype": "DT_FLOAT",
              "tensorShape": {
                "dim": [
                  { "size": "3" },
                  { "size": "3" },
                  { "size": "128" },
                  { "size": "128" }
                ]
              }
            }
          },
          "dtype": { "type": "DT_FLOAT" }
        }
      },
      {
        "name": "3071",
        "op": "Const",
        "attr": {
          "value": {
            "tensor": {
              "dtype": "DT_FLOAT",
              "tensorShape": { "dim": [{ "size": "128" }] }
            }
          },
          "dtype": { "type": "DT_FLOAT" }
        }
      },
      {
        "name": "3073",
        "op": "Const",
        "attr": {
          "value": {
            "tensor": {
              "dtype": "DT_FLOAT",
              "tensorShape": {
                "dim": [
                  { "size": "3" },
                  { "size": "3" },
                  { "size": "128" },
                  { "size": "128" }
                ]
              }
            }
          },
          "dtype": { "type": "DT_FLOAT" }
        }
      },
      {
        "name": "3075",
        "op": "Const",
        "attr": {
          "value": {
            "tensor": {
              "dtype": "DT_FLOAT",
              "tensorShape": { "dim": [{ "size": "128" }] }
            }
          },
          "dtype": { "type": "DT_FLOAT" }
        }
      },
      {
        "name": "PartitionedCall/model_2/tf.concat_3/concat/axis",
        "op": "Const",
        "attr": {
          "value": { "tensor": { "dtype": "DT_INT32", "tensorShape": {} } },
          "dtype": { "type": "DT_INT32" }
        }
      },
      {
        "name": "3081",
        "op": "Const",
        "attr": {
          "value": {
            "tensor": {
              "dtype": "DT_FLOAT",
              "tensorShape": {
                "dim": [
                  { "size": "1" },
                  { "size": "1" },
                  { "size": "384" },
                  { "size": "256" }
                ]
              }
            }
          },
          "dtype": { "type": "DT_FLOAT" }
        }
      },
      {
        "name": "3083",
        "op": "Const",
        "attr": {
          "value": {
            "tensor": {
              "dtype": "DT_FLOAT",
              "tensorShape": { "dim": [{ "size": "256" }] }
            }
          },
          "dtype": { "type": "DT_FLOAT" }
        }
      },
      {
        "name": "3085",
        "op": "Const",
        "attr": {
          "value": {
            "tensor": {
              "dtype": "DT_FLOAT",
              "tensorShape": {
                "dim": [
                  { "size": "1" },
                  { "size": "1" },
                  { "size": "256" },
                  { "size": "128" }
                ]
              }
            }
          },
          "dtype": { "type": "DT_FLOAT" }
        }
      },
      {
        "name": "3087",
        "op": "Const",
        "attr": {
          "value": {
            "tensor": {
              "dtype": "DT_FLOAT",
              "tensorShape": { "dim": [{ "size": "128" }] }
            }
          },
          "dtype": { "type": "DT_FLOAT" }
        }
      },
      {
        "name": "PartitionedCall/model_2/tf.concat_4/concat/axis",
        "op": "Const",
        "attr": {
          "value": { "tensor": { "dtype": "DT_INT32", "tensorShape": {} } },
          "dtype": { "type": "DT_INT32" }
        }
      },
      {
        "name": "3089",
        "op": "Const",
        "attr": {
          "value": {
            "tensor": {
              "dtype": "DT_FLOAT",
              "tensorShape": {
                "dim": [
                  { "size": "1" },
                  { "size": "1" },
                  { "size": "512" },
                  { "size": "256" }
                ]
              }
            }
          },
          "dtype": { "type": "DT_FLOAT" }
        }
      },
      {
        "name": "3091",
        "op": "Const",
        "attr": {
          "value": {
            "tensor": {
              "dtype": "DT_FLOAT",
              "tensorShape": { "dim": [{ "size": "256" }] }
            }
          },
          "dtype": { "type": "DT_FLOAT" }
        }
      },
      {
        "name": "PartitionedCall/model_2/tf.concat_12/concat/axis",
        "op": "Const",
        "attr": {
          "value": { "tensor": { "dtype": "DT_INT32", "tensorShape": {} } },
          "dtype": { "type": "DT_INT32" }
        }
      },
      {
        "name": "3177",
        "op": "Const",
        "attr": {
          "value": {
            "tensor": {
              "dtype": "DT_FLOAT",
              "tensorShape": {
                "dim": [
                  { "size": "1" },
                  { "size": "1" },
                  { "size": "384" },
                  { "size": "256" }
                ]
              }
            }
          },
          "dtype": { "type": "DT_FLOAT" }
        }
      },
      {
        "name": "3179",
        "op": "Const",
        "attr": {
          "value": {
            "tensor": {
              "dtype": "DT_FLOAT",
              "tensorShape": { "dim": [{ "size": "256" }] }
            }
          },
          "dtype": { "type": "DT_FLOAT" }
        }
      },
      {
        "name": "3181",
        "op": "Const",
        "attr": {
          "value": {
            "tensor": {
              "dtype": "DT_INT64",
              "tensorShape": { "dim": [{ "size": "4" }] }
            }
          },
          "dtype": { "type": "DT_INT64" }
        }
      },
      {
        "name": "3183",
        "op": "Const",
        "attr": {
          "value": {
            "tensor": {
              "dtype": "DT_INT64",
              "tensorShape": { "dim": [{ "size": "4" }] }
            }
          },
          "dtype": { "type": "DT_INT64" }
        }
      },
      {
        "name": "PartitionedCall/model_2/tf.strided_slice_15/ones_like",
        "op": "Const",
        "attr": {
          "value": {
            "tensor": {
              "dtype": "DT_INT64",
              "tensorShape": { "dim": [{ "size": "4" }] }
            }
          },
          "dtype": { "type": "DT_INT64" }
        }
      },
      {
        "name": "3185",
        "op": "Const",
        "attr": {
          "value": {
            "tensor": {
              "dtype": "DT_FLOAT",
              "tensorShape": {
                "dim": [
                  { "size": "3" },
                  { "size": "3" },
                  { "size": "128" },
                  { "size": "128" }
                ]
              }
            }
          },
          "dtype": { "type": "DT_FLOAT" }
        }
      },
      {
        "name": "3187",
        "op": "Const",
        "attr": {
          "value": {
            "tensor": {
              "dtype": "DT_FLOAT",
              "tensorShape": { "dim": [{ "size": "128" }] }
            }
          },
          "dtype": { "type": "DT_FLOAT" }
        }
      },
      {
        "name": "3189",
        "op": "Const",
        "attr": {
          "value": {
            "tensor": {
              "dtype": "DT_FLOAT",
              "tensorShape": {
                "dim": [
                  { "size": "3" },
                  { "size": "3" },
                  { "size": "128" },
                  { "size": "128" }
                ]
              }
            }
          },
          "dtype": { "type": "DT_FLOAT" }
        }
      },
      {
        "name": "3191",
        "op": "Const",
        "attr": {
          "value": {
            "tensor": {
              "dtype": "DT_FLOAT",
              "tensorShape": { "dim": [{ "size": "128" }] }
            }
          },
          "dtype": { "type": "DT_FLOAT" }
        }
      },
      {
        "name": "PartitionedCall/model_2/tf.concat_14/concat/axis",
        "op": "Const",
        "attr": {
          "value": { "tensor": { "dtype": "DT_INT32", "tensorShape": {} } },
          "dtype": { "type": "DT_INT32" }
        }
      },
      {
        "name": "3197",
        "op": "Const",
        "attr": {
          "value": {
            "tensor": {
              "dtype": "DT_FLOAT",
              "tensorShape": {
                "dim": [
                  { "size": "1" },
                  { "size": "1" },
                  { "size": "384" },
                  { "size": "256" }
                ]
              }
            }
          },
          "dtype": { "type": "DT_FLOAT" }
        }
      },
      {
        "name": "3199",
        "op": "Const",
        "attr": {
          "value": {
            "tensor": {
              "dtype": "DT_FLOAT",
              "tensorShape": { "dim": [{ "size": "256" }] }
            }
          },
          "dtype": { "type": "DT_FLOAT" }
        }
      },
      {
        "name": "3201",
        "op": "Const",
        "attr": {
          "value": {
            "tensor": {
              "dtype": "DT_FLOAT",
              "tensorShape": {
                "dim": [
                  { "size": "3" },
                  { "size": "3" },
                  { "size": "256" },
                  { "size": "64" }
                ]
              }
            }
          },
          "dtype": { "type": "DT_FLOAT" }
        }
      },
      {
        "name": "3213",
        "op": "Const",
        "attr": {
          "value": {
            "tensor": {
              "dtype": "DT_FLOAT",
              "tensorShape": { "dim": [{ "size": "64" }] }
            }
          },
          "dtype": { "type": "DT_FLOAT" }
        }
      },
      {
        "name": "3225",
        "op": "Const",
        "attr": {
          "value": {
            "tensor": {
              "dtype": "DT_FLOAT",
              "tensorShape": {
                "dim": [
                  { "size": "3" },
                  { "size": "3" },
                  { "size": "64" },
                  { "size": "64" }
                ]
              }
            }
          },
          "dtype": { "type": "DT_FLOAT" }
        }
      },
      {
        "name": "3237",
        "op": "Const",
        "attr": {
          "value": {
            "tensor": {
              "dtype": "DT_FLOAT",
              "tensorShape": { "dim": [{ "size": "64" }] }
            }
          },
          "dtype": { "type": "DT_FLOAT" }
        }
      },
      {
        "name": "3249",
        "op": "Const",
        "attr": {
          "value": {
            "tensor": {
              "dtype": "DT_FLOAT",
              "tensorShape": {
                "dim": [
                  { "size": "1" },
                  { "size": "1" },
                  { "size": "64" },
                  { "size": "26" }
                ]
              }
            }
          },
          "dtype": { "type": "DT_FLOAT" }
        }
      },
      {
        "name": "3263",
        "op": "Const",
        "attr": {
          "value": {
            "tensor": {
              "dtype": "DT_FLOAT",
              "tensorShape": { "dim": [{ "size": "26" }] }
            }
          },
          "dtype": { "type": "DT_FLOAT" }
        }
      },
      {
        "name": "PartitionedCall/model_2/tf.concat_15/concat/axis",
        "op": "Const",
        "attr": {
          "value": { "tensor": { "dtype": "DT_INT32", "tensorShape": {} } },
          "dtype": { "type": "DT_INT32" }
        }
      },
      {
        "name": "PartitionedCall/model_2/tf.compat.v1.transpose_2/transpose/perm",
        "op": "Const",
        "attr": {
          "value": {
            "tensor": {
              "dtype": "DT_INT32",
              "tensorShape": { "dim": [{ "size": "4" }] }
            }
          },
          "dtype": { "type": "DT_INT32" }
        }
      },
      {
        "name": "PartitionedCall/model_2/tf.reshape_2/Reshape/shape",
        "op": "Const",
        "attr": {
          "value": {
            "tensor": {
              "dtype": "DT_INT32",
              "tensorShape": { "dim": [{ "size": "3" }] }
            }
          },
          "dtype": { "type": "DT_INT32" }
        }
      },
      {
        "name": "PartitionedCall/model_2/tf.concat_16/concat/axis",
        "op": "Const",
        "attr": {
          "value": { "tensor": { "dtype": "DT_INT32", "tensorShape": {} } },
          "dtype": { "type": "DT_INT32" }
        }
      },
      {
        "name": "3293",
        "op": "Const",
        "attr": {
          "value": {
            "tensor": {
              "dtype": "DT_INT64",
              "tensorShape": { "dim": [{ "size": "3" }] }
            }
          },
          "dtype": { "type": "DT_INT64" }
        }
      },
      {
        "name": "3295",
        "op": "Const",
        "attr": {
          "value": {
            "tensor": {
              "dtype": "DT_INT64",
              "tensorShape": { "dim": [{ "size": "3" }] }
            }
          },
          "dtype": { "type": "DT_INT64" }
        }
      },
      {
        "name": "PartitionedCall/model_2/tf.strided_slice_17/StridedSlice/strides",
        "op": "Const",
        "attr": {
          "value": {
            "tensor": {
              "dtype": "DT_INT64",
              "tensorShape": { "dim": [{ "size": "3" }] }
            }
          },
          "dtype": { "type": "DT_INT64" }
        }
      },
      {
        "name": "PartitionedCall/model_2/output0/concat/axis",
        "op": "Const",
        "attr": {
          "value": { "tensor": { "dtype": "DT_INT32", "tensorShape": {} } },
          "dtype": { "type": "DT_INT32" }
        }
      },
      {
        "name": "x",
        "op": "Placeholder",
        "attr": {
          "shape": {
            "shape": {
              "dim": [
                { "size": "1" },
                { "size": "640" },
                { "size": "640" },
                { "size": "3" }
              ]
            }
          },
          "dtype": { "type": "DT_FLOAT" }
        }
      },
      {
        "name": "PartitionedCall/model_2/tf.compat.v1.pad/Pad",
        "op": "Pad",
        "input": ["x", "2943"],
        "attr": {
          "Tpaddings": { "type": "DT_INT32" },
          "T": { "type": "DT_FLOAT" }
        }
      },
      {
        "name": "PartitionedCall/model_2/tf.math.add/Add",
        "op": "_FusedConv2D",
        "input": [
          "PartitionedCall/model_2/tf.compat.v1.pad/Pad",
          "2945",
          "2947"
        ],
        "device": "/device:CPU:0",
        "attr": {
          "num_host_args": { "i": "0" },
          "data_format": { "s": "TkhXQw==" },
          "filter_format": { "s": "SFdJTw==" },
          "fused_ops": { "list": { "s": ["Qmlhc0FkZA=="] } },
          "num_args": { "i": "1" },
          "strides": { "list": { "i": ["1", "2", "2", "1"] } },
          "TArgs": { "list": { "type": ["DT_FLOAT"] } },
          "padding": { "s": "VkFMSUQ=" },
          "use_cudnn_on_gpu": { "b": true },
          "leakyrelu_alpha": { "f": 0.2 },
          "epsilon": { "f": 0.0 },
          "T": { "type": "DT_FLOAT" },
          "explicit_paddings": { "list": {} },
          "dilations": { "list": { "i": ["1", "1", "1", "1"] } }
        }
      },
      {
        "name": "PartitionedCall/model_2/tf.math.sigmoid/Sigmoid",
        "op": "Sigmoid",
        "input": ["PartitionedCall/model_2/tf.math.add/Add"],
        "attr": { "T": { "type": "DT_FLOAT" } }
      },
      {
        "name": "PartitionedCall/model_2/tf.math.multiply_2/Mul",
        "op": "Mul",
        "input": [
          "PartitionedCall/model_2/tf.math.add/Add",
          "PartitionedCall/model_2/tf.math.sigmoid/Sigmoid"
        ],
        "attr": { "T": { "type": "DT_FLOAT" } }
      },
      {
        "name": "PartitionedCall/model_2/tf.compat.v1.pad_1/Pad",
        "op": "Pad",
        "input": ["PartitionedCall/model_2/tf.math.multiply_2/Mul", "2949"],
        "attr": {
          "Tpaddings": { "type": "DT_INT32" },
          "T": { "type": "DT_FLOAT" }
        }
      },
      {
        "name": "PartitionedCall/model_2/tf.math.add_1/Add",
        "op": "_FusedConv2D",
        "input": [
          "PartitionedCall/model_2/tf.compat.v1.pad_1/Pad",
          "2951",
          "2953"
        ],
        "device": "/device:CPU:0",
        "attr": {
          "num_host_args": { "i": "0" },
          "data_format": { "s": "TkhXQw==" },
          "filter_format": { "s": "SFdJTw==" },
          "strides": { "list": { "i": ["1", "2", "2", "1"] } },
          "num_args": { "i": "1" },
          "fused_ops": { "list": { "s": ["Qmlhc0FkZA=="] } },
          "TArgs": { "list": { "type": ["DT_FLOAT"] } },
          "padding": { "s": "VkFMSUQ=" },
          "use_cudnn_on_gpu": { "b": true },
          "leakyrelu_alpha": { "f": 0.2 },
          "epsilon": { "f": 0.0 },
          "T": { "type": "DT_FLOAT" },
          "explicit_paddings": { "list": {} },
          "dilations": { "list": { "i": ["1", "1", "1", "1"] } }
        }
      },
      {
        "name": "PartitionedCall/model_2/tf.math.sigmoid_1/Sigmoid",
        "op": "Sigmoid",
        "input": ["PartitionedCall/model_2/tf.math.add_1/Add"],
        "attr": { "T": { "type": "DT_FLOAT" } }
      },
      {
        "name": "PartitionedCall/model_2/tf.math.multiply_5/Mul",
        "op": "Mul",
        "input": [
          "PartitionedCall/model_2/tf.math.add_1/Add",
          "PartitionedCall/model_2/tf.math.sigmoid_1/Sigmoid"
        ],
        "attr": { "T": { "type": "DT_FLOAT" } }
      },
      {
        "name": "PartitionedCall/model_2/tf.math.add_2/Add",
        "op": "_FusedConv2D",
        "input": [
          "PartitionedCall/model_2/tf.math.multiply_5/Mul",
          "2955",
          "2957"
        ],
        "device": "/device:CPU:0",
        "attr": {
          "num_host_args": { "i": "0" },
          "data_format": { "s": "TkhXQw==" },
          "filter_format": { "s": "SFdJTw==" },
          "strides": { "list": { "i": ["1", "1", "1", "1"] } },
          "num_args": { "i": "1" },
          "fused_ops": { "list": { "s": ["Qmlhc0FkZA=="] } },
          "TArgs": { "list": { "type": ["DT_FLOAT"] } },
          "padding": { "s": "U0FNRQ==" },
          "use_cudnn_on_gpu": { "b": true },
          "leakyrelu_alpha": { "f": 0.2 },
          "epsilon": { "f": 0.0 },
          "T": { "type": "DT_FLOAT" },
          "explicit_paddings": { "list": {} },
          "dilations": { "list": { "i": ["1", "1", "1", "1"] } }
        }
      },
      {
        "name": "PartitionedCall/model_2/tf.math.sigmoid_2/Sigmoid",
        "op": "Sigmoid",
        "input": ["PartitionedCall/model_2/tf.math.add_2/Add"],
        "attr": { "T": { "type": "DT_FLOAT" } }
      },
      {
        "name": "PartitionedCall/model_2/tf.math.multiply_8/Mul",
        "op": "Mul",
        "input": [
          "PartitionedCall/model_2/tf.math.add_2/Add",
          "PartitionedCall/model_2/tf.math.sigmoid_2/Sigmoid"
        ],
        "attr": { "T": { "type": "DT_FLOAT" } }
      },
      {
        "name": "PartitionedCall/model_2/tf.strided_slice/StridedSlice",
        "op": "StridedSlice",
        "input": [
          "PartitionedCall/model_2/tf.math.multiply_8/Mul",
          "2971",
          "2973",
          "PartitionedCall/model_2/tf.strided_slice/ones_like"
        ],
        "attr": {
          "shrink_axis_mask": { "i": "0" },
          "new_axis_mask": { "i": "0" },
          "Index": { "type": "DT_INT64" },
          "begin_mask": { "i": "15" },
          "end_mask": { "i": "7" },
          "T": { "type": "DT_FLOAT" },
          "ellipsis_mask": { "i": "0" }
        }
      },
      {
        "name": "PartitionedCall/model_2/tf.strided_slice_1/StridedSlice",
        "op": "StridedSlice",
        "input": [
          "PartitionedCall/model_2/tf.math.multiply_8/Mul",
          "2959",
          "2961",
          "PartitionedCall/model_2/tf.strided_slice_1/ones_like"
        ],
        "attr": {
          "shrink_axis_mask": { "i": "0" },
          "new_axis_mask": { "i": "0" },
          "Index": { "type": "DT_INT64" },
          "begin_mask": { "i": "7" },
          "T": { "type": "DT_FLOAT" },
          "end_mask": { "i": "7" },
          "ellipsis_mask": { "i": "0" }
        }
      },
      {
        "name": "PartitionedCall/model_2/tf.math.add_3/Add",
        "op": "_FusedConv2D",
        "input": [
          "PartitionedCall/model_2/tf.strided_slice_1/StridedSlice",
          "2963",
          "2965"
        ],
        "device": "/device:CPU:0",
        "attr": {
          "num_host_args": { "i": "0" },
          "data_format": { "s": "TkhXQw==" },
          "filter_format": { "s": "SFdJTw==" },
          "fused_ops": { "list": { "s": ["Qmlhc0FkZA=="] } },
          "num_args": { "i": "1" },
          "strides": { "list": { "i": ["1", "1", "1", "1"] } },
          "TArgs": { "list": { "type": ["DT_FLOAT"] } },
          "padding": { "s": "U0FNRQ==" },
          "use_cudnn_on_gpu": { "b": true },
          "leakyrelu_alpha": { "f": 0.2 },
          "epsilon": { "f": 0.0 },
          "T": { "type": "DT_FLOAT" },
          "explicit_paddings": { "list": {} },
          "dilations": { "list": { "i": ["1", "1", "1", "1"] } }
        }
      },
      {
        "name": "PartitionedCall/model_2/tf.math.sigmoid_3/Sigmoid",
        "op": "Sigmoid",
        "input": ["PartitionedCall/model_2/tf.math.add_3/Add"],
        "attr": { "T": { "type": "DT_FLOAT" } }
      },
      {
        "name": "PartitionedCall/model_2/tf.math.multiply_11/Mul",
        "op": "Mul",
        "input": [
          "PartitionedCall/model_2/tf.math.add_3/Add",
          "PartitionedCall/model_2/tf.math.sigmoid_3/Sigmoid"
        ],
        "attr": { "T": { "type": "DT_FLOAT" } }
      },
      {
        "name": "PartitionedCall/model_2/tf.math.add_4/Add",
        "op": "_FusedConv2D",
        "input": [
          "PartitionedCall/model_2/tf.math.multiply_11/Mul",
          "2967",
          "2969"
        ],
        "device": "/device:CPU:0",
        "attr": {
          "num_host_args": { "i": "0" },
          "data_format": { "s": "TkhXQw==" },
          "filter_format": { "s": "SFdJTw==" },
          "strides": { "list": { "i": ["1", "1", "1", "1"] } },
          "num_args": { "i": "1" },
          "fused_ops": { "list": { "s": ["Qmlhc0FkZA=="] } },
          "TArgs": { "list": { "type": ["DT_FLOAT"] } },
          "padding": { "s": "U0FNRQ==" },
          "use_cudnn_on_gpu": { "b": true },
          "leakyrelu_alpha": { "f": 0.2 },
          "epsilon": { "f": 0.0 },
          "T": { "type": "DT_FLOAT" },
          "explicit_paddings": { "list": {} },
          "dilations": { "list": { "i": ["1", "1", "1", "1"] } }
        }
      },
      {
        "name": "PartitionedCall/model_2/tf.math.sigmoid_4/Sigmoid",
        "op": "Sigmoid",
        "input": ["PartitionedCall/model_2/tf.math.add_4/Add"],
        "attr": { "T": { "type": "DT_FLOAT" } }
      },
      {
        "name": "PartitionedCall/model_2/tf.math.multiply_14/Mul",
        "op": "Mul",
        "input": [
          "PartitionedCall/model_2/tf.math.add_4/Add",
          "PartitionedCall/model_2/tf.math.sigmoid_4/Sigmoid"
        ],
        "attr": { "T": { "type": "DT_FLOAT" } }
      },
      {
        "name": "PartitionedCall/model_2/tf.math.add_6/Add",
        "op": "AddV2",
        "input": [
          "PartitionedCall/model_2/tf.strided_slice_1/StridedSlice",
          "PartitionedCall/model_2/tf.math.multiply_14/Mul"
        ],
        "attr": { "T": { "type": "DT_FLOAT" } }
      },
      {
        "name": "PartitionedCall/model_2/tf.concat/concat",
        "op": "ConcatV2",
        "input": [
          "PartitionedCall/model_2/tf.strided_slice/StridedSlice",
          "PartitionedCall/model_2/tf.strided_slice_1/StridedSlice",
          "PartitionedCall/model_2/tf.math.add_6/Add",
          "PartitionedCall/model_2/tf.concat/concat/axis"
        ],
        "attr": {
          "N": { "i": "3" },
          "Tidx": { "type": "DT_INT32" },
          "T": { "type": "DT_FLOAT" }
        }
      },
      {
        "name": "PartitionedCall/model_2/tf.math.add_7/Add",
        "op": "_FusedConv2D",
        "input": ["PartitionedCall/model_2/tf.concat/concat", "2975", "2977"],
        "device": "/device:CPU:0",
        "attr": {
          "num_host_args": { "i": "0" },
          "data_format": { "s": "TkhXQw==" },
          "filter_format": { "s": "SFdJTw==" },
          "strides": { "list": { "i": ["1", "1", "1", "1"] } },
          "num_args": { "i": "1" },
          "fused_ops": { "list": { "s": ["Qmlhc0FkZA=="] } },
          "TArgs": { "list": { "type": ["DT_FLOAT"] } },
          "padding": { "s": "U0FNRQ==" },
          "use_cudnn_on_gpu": { "b": true },
          "leakyrelu_alpha": { "f": 0.2 },
          "epsilon": { "f": 0.0 },
          "T": { "type": "DT_FLOAT" },
          "explicit_paddings": { "list": {} },
          "dilations": { "list": { "i": ["1", "1", "1", "1"] } }
        }
      },
      {
        "name": "PartitionedCall/model_2/tf.math.sigmoid_5/Sigmoid",
        "op": "Sigmoid",
        "input": ["PartitionedCall/model_2/tf.math.add_7/Add"],
        "attr": { "T": { "type": "DT_FLOAT" } }
      },
      {
        "name": "PartitionedCall/model_2/tf.math.multiply_18/Mul",
        "op": "Mul",
        "input": [
          "PartitionedCall/model_2/tf.math.add_7/Add",
          "PartitionedCall/model_2/tf.math.sigmoid_5/Sigmoid"
        ],
        "attr": { "T": { "type": "DT_FLOAT" } }
      },
      {
        "name": "PartitionedCall/model_2/tf.compat.v1.pad_2/Pad",
        "op": "Pad",
        "input": ["PartitionedCall/model_2/tf.math.multiply_18/Mul", "2979"],
        "attr": {
          "Tpaddings": { "type": "DT_INT32" },
          "T": { "type": "DT_FLOAT" }
        }
      },
      {
        "name": "PartitionedCall/model_2/tf.math.add_8/Add",
        "op": "_FusedConv2D",
        "input": [
          "PartitionedCall/model_2/tf.compat.v1.pad_2/Pad",
          "2981",
          "2983"
        ],
        "device": "/device:CPU:0",
        "attr": {
          "num_host_args": { "i": "0" },
          "data_format": { "s": "TkhXQw==" },
          "filter_format": { "s": "SFdJTw==" },
          "fused_ops": { "list": { "s": ["Qmlhc0FkZA=="] } },
          "num_args": { "i": "1" },
          "strides": { "list": { "i": ["1", "2", "2", "1"] } },
          "TArgs": { "list": { "type": ["DT_FLOAT"] } },
          "padding": { "s": "VkFMSUQ=" },
          "use_cudnn_on_gpu": { "b": true },
          "leakyrelu_alpha": { "f": 0.2 },
          "epsilon": { "f": 0.0 },
          "T": { "type": "DT_FLOAT" },
          "explicit_paddings": { "list": {} },
          "dilations": { "list": { "i": ["1", "1", "1", "1"] } }
        }
      },
      {
        "name": "PartitionedCall/model_2/tf.math.sigmoid_6/Sigmoid",
        "op": "Sigmoid",
        "input": ["PartitionedCall/model_2/tf.math.add_8/Add"],
        "attr": { "T": { "type": "DT_FLOAT" } }
      },
      {
        "name": "PartitionedCall/model_2/tf.math.multiply_21/Mul",
        "op": "Mul",
        "input": [
          "PartitionedCall/model_2/tf.math.add_8/Add",
          "PartitionedCall/model_2/tf.math.sigmoid_6/Sigmoid"
        ],
        "attr": { "T": { "type": "DT_FLOAT" } }
      },
      {
        "name": "PartitionedCall/model_2/tf.math.add_9/Add",
        "op": "_FusedConv2D",
        "input": [
          "PartitionedCall/model_2/tf.math.multiply_21/Mul",
          "2985",
          "2987"
        ],
        "device": "/device:CPU:0",
        "attr": {
          "num_host_args": { "i": "0" },
          "data_format": { "s": "TkhXQw==" },
          "filter_format": { "s": "SFdJTw==" },
          "strides": { "list": { "i": ["1", "1", "1", "1"] } },
          "num_args": { "i": "1" },
          "fused_ops": { "list": { "s": ["Qmlhc0FkZA=="] } },
          "TArgs": { "list": { "type": ["DT_FLOAT"] } },
          "padding": { "s": "U0FNRQ==" },
          "use_cudnn_on_gpu": { "b": true },
          "leakyrelu_alpha": { "f": 0.2 },
          "epsilon": { "f": 0.0 },
          "T": { "type": "DT_FLOAT" },
          "explicit_paddings": { "list": {} },
          "dilations": { "list": { "i": ["1", "1", "1", "1"] } }
        }
      },
      {
        "name": "PartitionedCall/model_2/tf.math.sigmoid_7/Sigmoid",
        "op": "Sigmoid",
        "input": ["PartitionedCall/model_2/tf.math.add_9/Add"],
        "attr": { "T": { "type": "DT_FLOAT" } }
      },
      {
        "name": "PartitionedCall/model_2/tf.math.multiply_24/Mul",
        "op": "Mul",
        "input": [
          "PartitionedCall/model_2/tf.math.add_9/Add",
          "PartitionedCall/model_2/tf.math.sigmoid_7/Sigmoid"
        ],
        "attr": { "T": { "type": "DT_FLOAT" } }
      },
      {
        "name": "PartitionedCall/model_2/tf.strided_slice_2/StridedSlice",
        "op": "StridedSlice",
        "input": [
          "PartitionedCall/model_2/tf.math.multiply_24/Mul",
          "3009",
          "3011",
          "PartitionedCall/model_2/tf.strided_slice_2/ones_like"
        ],
        "attr": {
          "shrink_axis_mask": { "i": "0" },
          "Index": { "type": "DT_INT64" },
          "new_axis_mask": { "i": "0" },
          "begin_mask": { "i": "15" },
          "T": { "type": "DT_FLOAT" },
          "end_mask": { "i": "7" },
          "ellipsis_mask": { "i": "0" }
        }
      },
      {
        "name": "PartitionedCall/model_2/tf.strided_slice_3/StridedSlice",
        "op": "StridedSlice",
        "input": [
          "PartitionedCall/model_2/tf.math.multiply_24/Mul",
          "2989",
          "2991",
          "PartitionedCall/model_2/tf.strided_slice_3/ones_like"
        ],
        "attr": {
          "shrink_axis_mask": { "i": "0" },
          "new_axis_mask": { "i": "0" },
          "Index": { "type": "DT_INT64" },
          "begin_mask": { "i": "7" },
          "end_mask": { "i": "7" },
          "T": { "type": "DT_FLOAT" },
          "ellipsis_mask": { "i": "0" }
        }
      },
      {
        "name": "PartitionedCall/model_2/tf.math.add_10/Add",
        "op": "_FusedConv2D",
        "input": [
          "PartitionedCall/model_2/tf.strided_slice_3/StridedSlice",
          "2993",
          "2995"
        ],
        "device": "/device:CPU:0",
        "attr": {
          "num_host_args": { "i": "0" },
          "data_format": { "s": "TkhXQw==" },
          "filter_format": { "s": "SFdJTw==" },
          "fused_ops": { "list": { "s": ["Qmlhc0FkZA=="] } },
          "num_args": { "i": "1" },
          "strides": { "list": { "i": ["1", "1", "1", "1"] } },
          "TArgs": { "list": { "type": ["DT_FLOAT"] } },
          "padding": { "s": "U0FNRQ==" },
          "use_cudnn_on_gpu": { "b": true },
          "leakyrelu_alpha": { "f": 0.2 },
          "epsilon": { "f": 0.0 },
          "T": { "type": "DT_FLOAT" },
          "explicit_paddings": { "list": {} },
          "dilations": { "list": { "i": ["1", "1", "1", "1"] } }
        }
      },
      {
        "name": "PartitionedCall/model_2/tf.math.sigmoid_8/Sigmoid",
        "op": "Sigmoid",
        "input": ["PartitionedCall/model_2/tf.math.add_10/Add"],
        "attr": { "T": { "type": "DT_FLOAT" } }
      },
      {
        "name": "PartitionedCall/model_2/tf.math.multiply_27/Mul",
        "op": "Mul",
        "input": [
          "PartitionedCall/model_2/tf.math.add_10/Add",
          "PartitionedCall/model_2/tf.math.sigmoid_8/Sigmoid"
        ],
        "attr": { "T": { "type": "DT_FLOAT" } }
      },
      {
        "name": "PartitionedCall/model_2/tf.math.add_11/Add",
        "op": "_FusedConv2D",
        "input": [
          "PartitionedCall/model_2/tf.math.multiply_27/Mul",
          "2997",
          "2999"
        ],
        "device": "/device:CPU:0",
        "attr": {
          "num_host_args": { "i": "0" },
          "data_format": { "s": "TkhXQw==" },
          "filter_format": { "s": "SFdJTw==" },
          "strides": { "list": { "i": ["1", "1", "1", "1"] } },
          "num_args": { "i": "1" },
          "fused_ops": { "list": { "s": ["Qmlhc0FkZA=="] } },
          "TArgs": { "list": { "type": ["DT_FLOAT"] } },
          "padding": { "s": "U0FNRQ==" },
          "use_cudnn_on_gpu": { "b": true },
          "leakyrelu_alpha": { "f": 0.2 },
          "epsilon": { "f": 0.0 },
          "T": { "type": "DT_FLOAT" },
          "explicit_paddings": { "list": {} },
          "dilations": { "list": { "i": ["1", "1", "1", "1"] } }
        }
      },
      {
        "name": "PartitionedCall/model_2/tf.math.sigmoid_9/Sigmoid",
        "op": "Sigmoid",
        "input": ["PartitionedCall/model_2/tf.math.add_11/Add"],
        "attr": { "T": { "type": "DT_FLOAT" } }
      },
      {
        "name": "PartitionedCall/model_2/tf.math.multiply_30/Mul",
        "op": "Mul",
        "input": [
          "PartitionedCall/model_2/tf.math.add_11/Add",
          "PartitionedCall/model_2/tf.math.sigmoid_9/Sigmoid"
        ],
        "attr": { "T": { "type": "DT_FLOAT" } }
      },
      {
        "name": "PartitionedCall/model_2/tf.math.add_13/Add",
        "op": "AddV2",
        "input": [
          "PartitionedCall/model_2/tf.strided_slice_3/StridedSlice",
          "PartitionedCall/model_2/tf.math.multiply_30/Mul"
        ],
        "attr": { "T": { "type": "DT_FLOAT" } }
      },
      {
        "name": "PartitionedCall/model_2/tf.math.add_14/Add",
        "op": "_FusedConv2D",
        "input": ["PartitionedCall/model_2/tf.math.add_13/Add", "3001", "3003"],
        "device": "/device:CPU:0",
        "attr": {
          "num_host_args": { "i": "0" },
          "data_format": { "s": "TkhXQw==" },
          "filter_format": { "s": "SFdJTw==" },
          "fused_ops": { "list": { "s": ["Qmlhc0FkZA=="] } },
          "num_args": { "i": "1" },
          "strides": { "list": { "i": ["1", "1", "1", "1"] } },
          "TArgs": { "list": { "type": ["DT_FLOAT"] } },
          "padding": { "s": "U0FNRQ==" },
          "use_cudnn_on_gpu": { "b": true },
          "leakyrelu_alpha": { "f": 0.2 },
          "epsilon": { "f": 0.0 },
          "T": { "type": "DT_FLOAT" },
          "explicit_paddings": { "list": {} },
          "dilations": { "list": { "i": ["1", "1", "1", "1"] } }
        }
      },
      {
        "name": "PartitionedCall/model_2/tf.math.sigmoid_10/Sigmoid",
        "op": "Sigmoid",
        "input": ["PartitionedCall/model_2/tf.math.add_14/Add"],
        "attr": { "T": { "type": "DT_FLOAT" } }
      },
      {
        "name": "PartitionedCall/model_2/tf.math.multiply_34/Mul",
        "op": "Mul",
        "input": [
          "PartitionedCall/model_2/tf.math.add_14/Add",
          "PartitionedCall/model_2/tf.math.sigmoid_10/Sigmoid"
        ],
        "attr": { "T": { "type": "DT_FLOAT" } }
      },
      {
        "name": "PartitionedCall/model_2/tf.math.add_15/Add",
        "op": "_FusedConv2D",
        "input": [
          "PartitionedCall/model_2/tf.math.multiply_34/Mul",
          "3005",
          "3007"
        ],
        "device": "/device:CPU:0",
        "attr": {
          "num_host_args": { "i": "0" },
          "data_format": { "s": "TkhXQw==" },
          "filter_format": { "s": "SFdJTw==" },
          "fused_ops": { "list": { "s": ["Qmlhc0FkZA=="] } },
          "num_args": { "i": "1" },
          "strides": { "list": { "i": ["1", "1", "1", "1"] } },
          "TArgs": { "list": { "type": ["DT_FLOAT"] } },
          "padding": { "s": "U0FNRQ==" },
          "use_cudnn_on_gpu": { "b": true },
          "leakyrelu_alpha": { "f": 0.2 },
          "epsilon": { "f": 0.0 },
          "T": { "type": "DT_FLOAT" },
          "explicit_paddings": { "list": {} },
          "dilations": { "list": { "i": ["1", "1", "1", "1"] } }
        }
      },
      {
        "name": "PartitionedCall/model_2/tf.math.sigmoid_11/Sigmoid",
        "op": "Sigmoid",
        "input": ["PartitionedCall/model_2/tf.math.add_15/Add"],
        "attr": { "T": { "type": "DT_FLOAT" } }
      },
      {
        "name": "PartitionedCall/model_2/tf.math.multiply_37/Mul",
        "op": "Mul",
        "input": [
          "PartitionedCall/model_2/tf.math.add_15/Add",
          "PartitionedCall/model_2/tf.math.sigmoid_11/Sigmoid"
        ],
        "attr": { "T": { "type": "DT_FLOAT" } }
      },
      {
        "name": "PartitionedCall/model_2/tf.math.add_17/Add",
        "op": "AddV2",
        "input": [
          "PartitionedCall/model_2/tf.math.add_13/Add",
          "PartitionedCall/model_2/tf.math.multiply_37/Mul"
        ],
        "attr": { "T": { "type": "DT_FLOAT" } }
      },
      {
        "name": "PartitionedCall/model_2/tf.concat_1/concat",
        "op": "ConcatV2",
        "input": [
          "PartitionedCall/model_2/tf.strided_slice_2/StridedSlice",
          "PartitionedCall/model_2/tf.strided_slice_3/StridedSlice",
          "PartitionedCall/model_2/tf.math.add_13/Add",
          "PartitionedCall/model_2/tf.math.add_17/Add",
          "PartitionedCall/model_2/tf.concat_1/concat/axis"
        ],
        "attr": {
          "N": { "i": "4" },
          "T": { "type": "DT_FLOAT" },
          "Tidx": { "type": "DT_INT32" }
        }
      },
      {
        "name": "PartitionedCall/model_2/tf.math.add_18/Add",
        "op": "_FusedConv2D",
        "input": ["PartitionedCall/model_2/tf.concat_1/concat", "3013", "3015"],
        "device": "/device:CPU:0",
        "attr": {
          "num_host_args": { "i": "0" },
          "data_format": { "s": "TkhXQw==" },
          "filter_format": { "s": "SFdJTw==" },
          "fused_ops": { "list": { "s": ["Qmlhc0FkZA=="] } },
          "num_args": { "i": "1" },
          "strides": { "list": { "i": ["1", "1", "1", "1"] } },
          "TArgs": { "list": { "type": ["DT_FLOAT"] } },
          "padding": { "s": "U0FNRQ==" },
          "use_cudnn_on_gpu": { "b": true },
          "leakyrelu_alpha": { "f": 0.2 },
          "epsilon": { "f": 0.0 },
          "T": { "type": "DT_FLOAT" },
          "explicit_paddings": { "list": {} },
          "dilations": { "list": { "i": ["1", "1", "1", "1"] } }
        }
      },
      {
        "name": "PartitionedCall/model_2/tf.math.sigmoid_12/Sigmoid",
        "op": "Sigmoid",
        "input": ["PartitionedCall/model_2/tf.math.add_18/Add"],
        "attr": { "T": { "type": "DT_FLOAT" } }
      },
      {
        "name": "PartitionedCall/model_2/tf.math.multiply_41/Mul",
        "op": "Mul",
        "input": [
          "PartitionedCall/model_2/tf.math.add_18/Add",
          "PartitionedCall/model_2/tf.math.sigmoid_12/Sigmoid"
        ],
        "attr": { "T": { "type": "DT_FLOAT" } }
      },
      {
        "name": "PartitionedCall/model_2/tf.compat.v1.pad_3/Pad",
        "op": "Pad",
        "input": ["PartitionedCall/model_2/tf.math.multiply_41/Mul", "3017"],
        "attr": {
          "Tpaddings": { "type": "DT_INT32" },
          "T": { "type": "DT_FLOAT" }
        }
      },
      {
        "name": "PartitionedCall/model_2/tf.math.add_19/Add",
        "op": "_FusedConv2D",
        "input": [
          "PartitionedCall/model_2/tf.compat.v1.pad_3/Pad",
          "3019",
          "3021"
        ],
        "device": "/device:CPU:0",
        "attr": {
          "num_host_args": { "i": "0" },
          "data_format": { "s": "TkhXQw==" },
          "filter_format": { "s": "SFdJTw==" },
          "strides": { "list": { "i": ["1", "2", "2", "1"] } },
          "num_args": { "i": "1" },
          "fused_ops": { "list": { "s": ["Qmlhc0FkZA=="] } },
          "TArgs": { "list": { "type": ["DT_FLOAT"] } },
          "padding": { "s": "VkFMSUQ=" },
          "use_cudnn_on_gpu": { "b": true },
          "leakyrelu_alpha": { "f": 0.2 },
          "epsilon": { "f": 0.0 },
          "T": { "type": "DT_FLOAT" },
          "explicit_paddings": { "list": {} },
          "dilations": { "list": { "i": ["1", "1", "1", "1"] } }
        }
      },
      {
        "name": "PartitionedCall/model_2/tf.math.sigmoid_13/Sigmoid",
        "op": "Sigmoid",
        "input": ["PartitionedCall/model_2/tf.math.add_19/Add"],
        "attr": { "T": { "type": "DT_FLOAT" } }
      },
      {
        "name": "PartitionedCall/model_2/tf.math.multiply_44/Mul",
        "op": "Mul",
        "input": [
          "PartitionedCall/model_2/tf.math.add_19/Add",
          "PartitionedCall/model_2/tf.math.sigmoid_13/Sigmoid"
        ],
        "attr": { "T": { "type": "DT_FLOAT" } }
      },
      {
        "name": "PartitionedCall/model_2/tf.math.add_20/Add",
        "op": "_FusedConv2D",
        "input": [
          "PartitionedCall/model_2/tf.math.multiply_44/Mul",
          "3023",
          "3025"
        ],
        "device": "/device:CPU:0",
        "attr": {
          "num_host_args": { "i": "0" },
          "data_format": { "s": "TkhXQw==" },
          "filter_format": { "s": "SFdJTw==" },
          "strides": { "list": { "i": ["1", "1", "1", "1"] } },
          "num_args": { "i": "1" },
          "fused_ops": { "list": { "s": ["Qmlhc0FkZA=="] } },
          "TArgs": { "list": { "type": ["DT_FLOAT"] } },
          "padding": { "s": "U0FNRQ==" },
          "use_cudnn_on_gpu": { "b": true },
          "leakyrelu_alpha": { "f": 0.2 },
          "epsilon": { "f": 0.0 },
          "T": { "type": "DT_FLOAT" },
          "explicit_paddings": { "list": {} },
          "dilations": { "list": { "i": ["1", "1", "1", "1"] } }
        }
      },
      {
        "name": "PartitionedCall/model_2/tf.math.sigmoid_14/Sigmoid",
        "op": "Sigmoid",
        "input": ["PartitionedCall/model_2/tf.math.add_20/Add"],
        "attr": { "T": { "type": "DT_FLOAT" } }
      },
      {
        "name": "PartitionedCall/model_2/tf.math.multiply_47/Mul",
        "op": "Mul",
        "input": [
          "PartitionedCall/model_2/tf.math.add_20/Add",
          "PartitionedCall/model_2/tf.math.sigmoid_14/Sigmoid"
        ],
        "attr": { "T": { "type": "DT_FLOAT" } }
      },
      {
        "name": "PartitionedCall/model_2/tf.strided_slice_4/StridedSlice",
        "op": "StridedSlice",
        "input": [
          "PartitionedCall/model_2/tf.math.multiply_47/Mul",
          "3047",
          "3049",
          "PartitionedCall/model_2/tf.strided_slice_4/ones_like"
        ],
        "attr": {
          "shrink_axis_mask": { "i": "0" },
          "Index": { "type": "DT_INT64" },
          "new_axis_mask": { "i": "0" },
          "begin_mask": { "i": "15" },
          "end_mask": { "i": "7" },
          "T": { "type": "DT_FLOAT" },
          "ellipsis_mask": { "i": "0" }
        }
      },
      {
        "name": "PartitionedCall/model_2/tf.strided_slice_5/StridedSlice",
        "op": "StridedSlice",
        "input": [
          "PartitionedCall/model_2/tf.math.multiply_47/Mul",
          "3027",
          "3029",
          "PartitionedCall/model_2/tf.strided_slice_5/ones_like"
        ],
        "attr": {
          "shrink_axis_mask": { "i": "0" },
          "Index": { "type": "DT_INT64" },
          "new_axis_mask": { "i": "0" },
          "begin_mask": { "i": "7" },
          "end_mask": { "i": "7" },
          "T": { "type": "DT_FLOAT" },
          "ellipsis_mask": { "i": "0" }
        }
      },
      {
        "name": "PartitionedCall/model_2/tf.math.add_21/Add",
        "op": "_FusedConv2D",
        "input": [
          "PartitionedCall/model_2/tf.strided_slice_5/StridedSlice",
          "3031",
          "3033"
        ],
        "device": "/device:CPU:0",
        "attr": {
          "num_host_args": { "i": "0" },
          "data_format": { "s": "TkhXQw==" },
          "filter_format": { "s": "SFdJTw==" },
          "fused_ops": { "list": { "s": ["Qmlhc0FkZA=="] } },
          "num_args": { "i": "1" },
          "strides": { "list": { "i": ["1", "1", "1", "1"] } },
          "TArgs": { "list": { "type": ["DT_FLOAT"] } },
          "padding": { "s": "U0FNRQ==" },
          "use_cudnn_on_gpu": { "b": true },
          "leakyrelu_alpha": { "f": 0.2 },
          "epsilon": { "f": 0.0 },
          "T": { "type": "DT_FLOAT" },
          "explicit_paddings": { "list": {} },
          "dilations": { "list": { "i": ["1", "1", "1", "1"] } }
        }
      },
      {
        "name": "PartitionedCall/model_2/tf.math.sigmoid_15/Sigmoid",
        "op": "Sigmoid",
        "input": ["PartitionedCall/model_2/tf.math.add_21/Add"],
        "attr": { "T": { "type": "DT_FLOAT" } }
      },
      {
        "name": "PartitionedCall/model_2/tf.math.multiply_50/Mul",
        "op": "Mul",
        "input": [
          "PartitionedCall/model_2/tf.math.add_21/Add",
          "PartitionedCall/model_2/tf.math.sigmoid_15/Sigmoid"
        ],
        "attr": { "T": { "type": "DT_FLOAT" } }
      },
      {
        "name": "PartitionedCall/model_2/tf.math.add_22/Add",
        "op": "_FusedConv2D",
        "input": [
          "PartitionedCall/model_2/tf.math.multiply_50/Mul",
          "3035",
          "3037"
        ],
        "device": "/device:CPU:0",
        "attr": {
          "num_host_args": { "i": "0" },
          "data_format": { "s": "TkhXQw==" },
          "filter_format": { "s": "SFdJTw==" },
          "strides": { "list": { "i": ["1", "1", "1", "1"] } },
          "num_args": { "i": "1" },
          "fused_ops": { "list": { "s": ["Qmlhc0FkZA=="] } },
          "TArgs": { "list": { "type": ["DT_FLOAT"] } },
          "padding": { "s": "U0FNRQ==" },
          "use_cudnn_on_gpu": { "b": true },
          "leakyrelu_alpha": { "f": 0.2 },
          "epsilon": { "f": 0.0 },
          "T": { "type": "DT_FLOAT" },
          "explicit_paddings": { "list": {} },
          "dilations": { "list": { "i": ["1", "1", "1", "1"] } }
        }
      },
      {
        "name": "PartitionedCall/model_2/tf.math.sigmoid_16/Sigmoid",
        "op": "Sigmoid",
        "input": ["PartitionedCall/model_2/tf.math.add_22/Add"],
        "attr": { "T": { "type": "DT_FLOAT" } }
      },
      {
        "name": "PartitionedCall/model_2/tf.math.multiply_53/Mul",
        "op": "Mul",
        "input": [
          "PartitionedCall/model_2/tf.math.add_22/Add",
          "PartitionedCall/model_2/tf.math.sigmoid_16/Sigmoid"
        ],
        "attr": { "T": { "type": "DT_FLOAT" } }
      },
      {
        "name": "PartitionedCall/model_2/tf.math.add_24/Add",
        "op": "AddV2",
        "input": [
          "PartitionedCall/model_2/tf.strided_slice_5/StridedSlice",
          "PartitionedCall/model_2/tf.math.multiply_53/Mul"
        ],
        "attr": { "T": { "type": "DT_FLOAT" } }
      },
      {
        "name": "PartitionedCall/model_2/tf.math.add_25/Add",
        "op": "_FusedConv2D",
        "input": ["PartitionedCall/model_2/tf.math.add_24/Add", "3039", "3041"],
        "device": "/device:CPU:0",
        "attr": {
          "num_host_args": { "i": "0" },
          "data_format": { "s": "TkhXQw==" },
          "filter_format": { "s": "SFdJTw==" },
          "strides": { "list": { "i": ["1", "1", "1", "1"] } },
          "num_args": { "i": "1" },
          "fused_ops": { "list": { "s": ["Qmlhc0FkZA=="] } },
          "TArgs": { "list": { "type": ["DT_FLOAT"] } },
          "padding": { "s": "U0FNRQ==" },
          "use_cudnn_on_gpu": { "b": true },
          "leakyrelu_alpha": { "f": 0.2 },
          "epsilon": { "f": 0.0 },
          "T": { "type": "DT_FLOAT" },
          "explicit_paddings": { "list": {} },
          "dilations": { "list": { "i": ["1", "1", "1", "1"] } }
        }
      },
      {
        "name": "PartitionedCall/model_2/tf.math.sigmoid_17/Sigmoid",
        "op": "Sigmoid",
        "input": ["PartitionedCall/model_2/tf.math.add_25/Add"],
        "attr": { "T": { "type": "DT_FLOAT" } }
      },
      {
        "name": "PartitionedCall/model_2/tf.math.multiply_57/Mul",
        "op": "Mul",
        "input": [
          "PartitionedCall/model_2/tf.math.add_25/Add",
          "PartitionedCall/model_2/tf.math.sigmoid_17/Sigmoid"
        ],
        "attr": { "T": { "type": "DT_FLOAT" } }
      },
      {
        "name": "PartitionedCall/model_2/tf.math.add_26/Add",
        "op": "_FusedConv2D",
        "input": [
          "PartitionedCall/model_2/tf.math.multiply_57/Mul",
          "3043",
          "3045"
        ],
        "device": "/device:CPU:0",
        "attr": {
          "num_host_args": { "i": "0" },
          "data_format": { "s": "TkhXQw==" },
          "filter_format": { "s": "SFdJTw==" },
          "fused_ops": { "list": { "s": ["Qmlhc0FkZA=="] } },
          "num_args": { "i": "1" },
          "strides": { "list": { "i": ["1", "1", "1", "1"] } },
          "TArgs": { "list": { "type": ["DT_FLOAT"] } },
          "padding": { "s": "U0FNRQ==" },
          "use_cudnn_on_gpu": { "b": true },
          "leakyrelu_alpha": { "f": 0.2 },
          "epsilon": { "f": 0.0 },
          "T": { "type": "DT_FLOAT" },
          "explicit_paddings": { "list": {} },
          "dilations": { "list": { "i": ["1", "1", "1", "1"] } }
        }
      },
      {
        "name": "PartitionedCall/model_2/tf.math.sigmoid_18/Sigmoid",
        "op": "Sigmoid",
        "input": ["PartitionedCall/model_2/tf.math.add_26/Add"],
        "attr": { "T": { "type": "DT_FLOAT" } }
      },
      {
        "name": "PartitionedCall/model_2/tf.math.multiply_60/Mul",
        "op": "Mul",
        "input": [
          "PartitionedCall/model_2/tf.math.add_26/Add",
          "PartitionedCall/model_2/tf.math.sigmoid_18/Sigmoid"
        ],
        "attr": { "T": { "type": "DT_FLOAT" } }
      },
      {
        "name": "PartitionedCall/model_2/tf.math.add_28/Add",
        "op": "AddV2",
        "input": [
          "PartitionedCall/model_2/tf.math.add_24/Add",
          "PartitionedCall/model_2/tf.math.multiply_60/Mul"
        ],
        "attr": { "T": { "type": "DT_FLOAT" } }
      },
      {
        "name": "PartitionedCall/model_2/tf.concat_2/concat",
        "op": "ConcatV2",
        "input": [
          "PartitionedCall/model_2/tf.strided_slice_4/StridedSlice",
          "PartitionedCall/model_2/tf.strided_slice_5/StridedSlice",
          "PartitionedCall/model_2/tf.math.add_24/Add",
          "PartitionedCall/model_2/tf.math.add_28/Add",
          "PartitionedCall/model_2/tf.concat_2/concat/axis"
        ],
        "attr": {
          "N": { "i": "4" },
          "T": { "type": "DT_FLOAT" },
          "Tidx": { "type": "DT_INT32" }
        }
      },
      {
        "name": "PartitionedCall/model_2/tf.math.add_29/Add",
        "op": "_FusedConv2D",
        "input": ["PartitionedCall/model_2/tf.concat_2/concat", "3051", "3053"],
        "device": "/device:CPU:0",
        "attr": {
          "num_host_args": { "i": "0" },
          "data_format": { "s": "TkhXQw==" },
          "filter_format": { "s": "SFdJTw==" },
          "strides": { "list": { "i": ["1", "1", "1", "1"] } },
          "num_args": { "i": "1" },
          "fused_ops": { "list": { "s": ["Qmlhc0FkZA=="] } },
          "TArgs": { "list": { "type": ["DT_FLOAT"] } },
          "padding": { "s": "U0FNRQ==" },
          "use_cudnn_on_gpu": { "b": true },
          "leakyrelu_alpha": { "f": 0.2 },
          "epsilon": { "f": 0.0 },
          "T": { "type": "DT_FLOAT" },
          "explicit_paddings": { "list": {} },
          "dilations": { "list": { "i": ["1", "1", "1", "1"] } }
        }
      },
      {
        "name": "PartitionedCall/model_2/tf.math.sigmoid_19/Sigmoid",
        "op": "Sigmoid",
        "input": ["PartitionedCall/model_2/tf.math.add_29/Add"],
        "attr": { "T": { "type": "DT_FLOAT" } }
      },
      {
        "name": "PartitionedCall/model_2/tf.math.multiply_64/Mul",
        "op": "Mul",
        "input": [
          "PartitionedCall/model_2/tf.math.add_29/Add",
          "PartitionedCall/model_2/tf.math.sigmoid_19/Sigmoid"
        ],
        "attr": { "T": { "type": "DT_FLOAT" } }
      },
      {
        "name": "PartitionedCall/model_2/tf.compat.v1.pad_4/Pad",
        "op": "Pad",
        "input": ["PartitionedCall/model_2/tf.math.multiply_64/Mul", "3055"],
        "attr": {
          "Tpaddings": { "type": "DT_INT32" },
          "T": { "type": "DT_FLOAT" }
        }
      },
      {
        "name": "PartitionedCall/model_2/tf.math.add_30/Add",
        "op": "_FusedConv2D",
        "input": [
          "PartitionedCall/model_2/tf.compat.v1.pad_4/Pad",
          "3057",
          "3059"
        ],
        "device": "/device:CPU:0",
        "attr": {
          "num_host_args": { "i": "0" },
          "data_format": { "s": "TkhXQw==" },
          "filter_format": { "s": "SFdJTw==" },
          "strides": { "list": { "i": ["1", "2", "2", "1"] } },
          "num_args": { "i": "1" },
          "fused_ops": { "list": { "s": ["Qmlhc0FkZA=="] } },
          "TArgs": { "list": { "type": ["DT_FLOAT"] } },
          "padding": { "s": "VkFMSUQ=" },
          "use_cudnn_on_gpu": { "b": true },
          "leakyrelu_alpha": { "f": 0.2 },
          "epsilon": { "f": 0.0 },
          "T": { "type": "DT_FLOAT" },
          "explicit_paddings": { "list": {} },
          "dilations": { "list": { "i": ["1", "1", "1", "1"] } }
        }
      },
      {
        "name": "PartitionedCall/model_2/tf.math.sigmoid_20/Sigmoid",
        "op": "Sigmoid",
        "input": ["PartitionedCall/model_2/tf.math.add_30/Add"],
        "attr": { "T": { "type": "DT_FLOAT" } }
      },
      {
        "name": "PartitionedCall/model_2/tf.math.multiply_67/Mul",
        "op": "Mul",
        "input": [
          "PartitionedCall/model_2/tf.math.add_30/Add",
          "PartitionedCall/model_2/tf.math.sigmoid_20/Sigmoid"
        ],
        "attr": { "T": { "type": "DT_FLOAT" } }
      },
      {
        "name": "PartitionedCall/model_2/tf.math.add_31/Add",
        "op": "_FusedConv2D",
        "input": [
          "PartitionedCall/model_2/tf.math.multiply_67/Mul",
          "3061",
          "3063"
        ],
        "device": "/device:CPU:0",
        "attr": {
          "num_host_args": { "i": "0" },
          "data_format": { "s": "TkhXQw==" },
          "filter_format": { "s": "SFdJTw==" },
          "strides": { "list": { "i": ["1", "1", "1", "1"] } },
          "num_args": { "i": "1" },
          "fused_ops": { "list": { "s": ["Qmlhc0FkZA=="] } },
          "TArgs": { "list": { "type": ["DT_FLOAT"] } },
          "padding": { "s": "U0FNRQ==" },
          "use_cudnn_on_gpu": { "b": true },
          "leakyrelu_alpha": { "f": 0.2 },
          "epsilon": { "f": 0.0 },
          "T": { "type": "DT_FLOAT" },
          "explicit_paddings": { "list": {} },
          "dilations": { "list": { "i": ["1", "1", "1", "1"] } }
        }
      },
      {
        "name": "PartitionedCall/model_2/tf.math.sigmoid_21/Sigmoid",
        "op": "Sigmoid",
        "input": ["PartitionedCall/model_2/tf.math.add_31/Add"],
        "attr": { "T": { "type": "DT_FLOAT" } }
      },
      {
        "name": "PartitionedCall/model_2/tf.math.multiply_70/Mul",
        "op": "Mul",
        "input": [
          "PartitionedCall/model_2/tf.math.add_31/Add",
          "PartitionedCall/model_2/tf.math.sigmoid_21/Sigmoid"
        ],
        "attr": { "T": { "type": "DT_FLOAT" } }
      },
      {
        "name": "PartitionedCall/model_2/tf.strided_slice_6/StridedSlice",
        "op": "StridedSlice",
        "input": [
          "PartitionedCall/model_2/tf.math.multiply_70/Mul",
          "3077",
          "3079",
          "PartitionedCall/model_2/tf.strided_slice_6/ones_like"
        ],
        "attr": {
          "shrink_axis_mask": { "i": "0" },
          "Index": { "type": "DT_INT64" },
          "new_axis_mask": { "i": "0" },
          "begin_mask": { "i": "15" },
          "end_mask": { "i": "7" },
          "T": { "type": "DT_FLOAT" },
          "ellipsis_mask": { "i": "0" }
        }
      },
      {
        "name": "PartitionedCall/model_2/tf.strided_slice_7/StridedSlice",
        "op": "StridedSlice",
        "input": [
          "PartitionedCall/model_2/tf.math.multiply_70/Mul",
          "3065",
          "3067",
          "PartitionedCall/model_2/tf.strided_slice_7/ones_like"
        ],
        "attr": {
          "shrink_axis_mask": { "i": "0" },
          "Index": { "type": "DT_INT64" },
          "new_axis_mask": { "i": "0" },
          "begin_mask": { "i": "7" },
          "T": { "type": "DT_FLOAT" },
          "end_mask": { "i": "7" },
          "ellipsis_mask": { "i": "0" }
        }
      },
      {
        "name": "PartitionedCall/model_2/tf.math.add_32/Add",
        "op": "_FusedConv2D",
        "input": [
          "PartitionedCall/model_2/tf.strided_slice_7/StridedSlice",
          "3069",
          "3071"
        ],
        "device": "/device:CPU:0",
        "attr": {
          "num_host_args": { "i": "0" },
          "data_format": { "s": "TkhXQw==" },
          "filter_format": { "s": "SFdJTw==" },
          "strides": { "list": { "i": ["1", "1", "1", "1"] } },
          "num_args": { "i": "1" },
          "fused_ops": { "list": { "s": ["Qmlhc0FkZA=="] } },
          "TArgs": { "list": { "type": ["DT_FLOAT"] } },
          "padding": { "s": "U0FNRQ==" },
          "use_cudnn_on_gpu": { "b": true },
          "leakyrelu_alpha": { "f": 0.2 },
          "epsilon": { "f": 0.0 },
          "T": { "type": "DT_FLOAT" },
          "explicit_paddings": { "list": {} },
          "dilations": { "list": { "i": ["1", "1", "1", "1"] } }
        }
      },
      {
        "name": "PartitionedCall/model_2/tf.math.sigmoid_22/Sigmoid",
        "op": "Sigmoid",
        "input": ["PartitionedCall/model_2/tf.math.add_32/Add"],
        "attr": { "T": { "type": "DT_FLOAT" } }
      },
      {
        "name": "PartitionedCall/model_2/tf.math.multiply_73/Mul",
        "op": "Mul",
        "input": [
          "PartitionedCall/model_2/tf.math.add_32/Add",
          "PartitionedCall/model_2/tf.math.sigmoid_22/Sigmoid"
        ],
        "attr": { "T": { "type": "DT_FLOAT" } }
      },
      {
        "name": "PartitionedCall/model_2/tf.math.add_33/Add",
        "op": "_FusedConv2D",
        "input": [
          "PartitionedCall/model_2/tf.math.multiply_73/Mul",
          "3073",
          "3075"
        ],
        "device": "/device:CPU:0",
        "attr": {
          "num_host_args": { "i": "0" },
          "data_format": { "s": "TkhXQw==" },
          "filter_format": { "s": "SFdJTw==" },
          "fused_ops": { "list": { "s": ["Qmlhc0FkZA=="] } },
          "num_args": { "i": "1" },
          "strides": { "list": { "i": ["1", "1", "1", "1"] } },
          "TArgs": { "list": { "type": ["DT_FLOAT"] } },
          "padding": { "s": "U0FNRQ==" },
          "use_cudnn_on_gpu": { "b": true },
          "leakyrelu_alpha": { "f": 0.2 },
          "epsilon": { "f": 0.0 },
          "T": { "type": "DT_FLOAT" },
          "explicit_paddings": { "list": {} },
          "dilations": { "list": { "i": ["1", "1", "1", "1"] } }
        }
      },
      {
        "name": "PartitionedCall/model_2/tf.math.sigmoid_23/Sigmoid",
        "op": "Sigmoid",
        "input": ["PartitionedCall/model_2/tf.math.add_33/Add"],
        "attr": { "T": { "type": "DT_FLOAT" } }
      },
      {
        "name": "PartitionedCall/model_2/tf.math.multiply_76/Mul",
        "op": "Mul",
        "input": [
          "PartitionedCall/model_2/tf.math.add_33/Add",
          "PartitionedCall/model_2/tf.math.sigmoid_23/Sigmoid"
        ],
        "attr": { "T": { "type": "DT_FLOAT" } }
      },
      {
        "name": "PartitionedCall/model_2/tf.math.add_35/Add",
        "op": "AddV2",
        "input": [
          "PartitionedCall/model_2/tf.strided_slice_7/StridedSlice",
          "PartitionedCall/model_2/tf.math.multiply_76/Mul"
        ],
        "attr": { "T": { "type": "DT_FLOAT" } }
      },
      {
        "name": "PartitionedCall/model_2/tf.concat_3/concat",
        "op": "ConcatV2",
        "input": [
          "PartitionedCall/model_2/tf.strided_slice_6/StridedSlice",
          "PartitionedCall/model_2/tf.strided_slice_7/StridedSlice",
          "PartitionedCall/model_2/tf.math.add_35/Add",
          "PartitionedCall/model_2/tf.concat_3/concat/axis"
        ],
        "attr": {
          "N": { "i": "3" },
          "T": { "type": "DT_FLOAT" },
          "Tidx": { "type": "DT_INT32" }
        }
      },
      {
        "name": "PartitionedCall/model_2/tf.math.add_36/Add",
        "op": "_FusedConv2D",
        "input": ["PartitionedCall/model_2/tf.concat_3/concat", "3081", "3083"],
        "device": "/device:CPU:0",
        "attr": {
          "num_host_args": { "i": "0" },
          "data_format": { "s": "TkhXQw==" },
          "filter_format": { "s": "SFdJTw==" },
          "strides": { "list": { "i": ["1", "1", "1", "1"] } },
          "num_args": { "i": "1" },
          "fused_ops": { "list": { "s": ["Qmlhc0FkZA=="] } },
          "TArgs": { "list": { "type": ["DT_FLOAT"] } },
          "padding": { "s": "U0FNRQ==" },
          "use_cudnn_on_gpu": { "b": true },
          "leakyrelu_alpha": { "f": 0.2 },
          "epsilon": { "f": 0.0 },
          "T": { "type": "DT_FLOAT" },
          "explicit_paddings": { "list": {} },
          "dilations": { "list": { "i": ["1", "1", "1", "1"] } }
        }
      },
      {
        "name": "PartitionedCall/model_2/tf.math.sigmoid_24/Sigmoid",
        "op": "Sigmoid",
        "input": ["PartitionedCall/model_2/tf.math.add_36/Add"],
        "attr": { "T": { "type": "DT_FLOAT" } }
      },
      {
        "name": "PartitionedCall/model_2/tf.math.multiply_80/Mul",
        "op": "Mul",
        "input": [
          "PartitionedCall/model_2/tf.math.add_36/Add",
          "PartitionedCall/model_2/tf.math.sigmoid_24/Sigmoid"
        ],
        "attr": { "T": { "type": "DT_FLOAT" } }
      },
      {
        "name": "PartitionedCall/model_2/tf.math.add_37/Add",
        "op": "_FusedConv2D",
        "input": [
          "PartitionedCall/model_2/tf.math.multiply_80/Mul",
          "3085",
          "3087"
        ],
        "device": "/device:CPU:0",
        "attr": {
          "num_host_args": { "i": "0" },
          "data_format": { "s": "TkhXQw==" },
          "filter_format": { "s": "SFdJTw==" },
          "fused_ops": { "list": { "s": ["Qmlhc0FkZA=="] } },
          "num_args": { "i": "1" },
          "strides": { "list": { "i": ["1", "1", "1", "1"] } },
          "TArgs": { "list": { "type": ["DT_FLOAT"] } },
          "padding": { "s": "U0FNRQ==" },
          "use_cudnn_on_gpu": { "b": true },
          "leakyrelu_alpha": { "f": 0.2 },
          "epsilon": { "f": 0.0 },
          "T": { "type": "DT_FLOAT" },
          "explicit_paddings": { "list": {} },
          "dilations": { "list": { "i": ["1", "1", "1", "1"] } }
        }
      },
      {
        "name": "PartitionedCall/model_2/tf.math.sigmoid_25/Sigmoid",
        "op": "Sigmoid",
        "input": ["PartitionedCall/model_2/tf.math.add_37/Add"],
        "attr": { "T": { "type": "DT_FLOAT" } }
      },
      {
        "name": "PartitionedCall/model_2/tf.math.multiply_83/Mul",
        "op": "Mul",
        "input": [
          "PartitionedCall/model_2/tf.math.add_37/Add",
          "PartitionedCall/model_2/tf.math.sigmoid_25/Sigmoid"
        ],
        "attr": { "T": { "type": "DT_FLOAT" } }
      },
      {
        "name": "PartitionedCall/model_2/tf.compat.v1.nn.pool/max_pool",
        "op": "MaxPool",
        "input": ["PartitionedCall/model_2/tf.math.multiply_83/Mul"],
        "attr": {
          "padding": { "s": "U0FNRQ==" },
          "data_format": { "s": "TkhXQw==" },
          "T": { "type": "DT_FLOAT" },
          "explicit_paddings": { "list": {} },
          "ksize": { "list": { "i": ["1", "5", "5", "1"] } },
          "strides": { "list": { "i": ["1", "1", "1", "1"] } }
        }
      },
      {
        "name": "PartitionedCall/model_2/tf.compat.v1.nn.pool_1/max_pool",
        "op": "MaxPool",
        "input": ["PartitionedCall/model_2/tf.compat.v1.nn.pool/max_pool"],
        "attr": {
          "padding": { "s": "U0FNRQ==" },
          "data_format": { "s": "TkhXQw==" },
          "T": { "type": "DT_FLOAT" },
          "explicit_paddings": { "list": {} },
          "ksize": { "list": { "i": ["1", "5", "5", "1"] } },
          "strides": { "list": { "i": ["1", "1", "1", "1"] } }
        }
      },
      {
        "name": "PartitionedCall/model_2/tf.compat.v1.nn.pool_2/max_pool",
        "op": "MaxPool",
        "input": ["PartitionedCall/model_2/tf.compat.v1.nn.pool_1/max_pool"],
        "attr": {
          "padding": { "s": "U0FNRQ==" },
          "data_format": { "s": "TkhXQw==" },
          "T": { "type": "DT_FLOAT" },
          "explicit_paddings": { "list": {} },
          "ksize": { "list": { "i": ["1", "5", "5", "1"] } },
          "strides": { "list": { "i": ["1", "1", "1", "1"] } }
        }
      },
      {
        "name": "PartitionedCall/model_2/tf.concat_4/concat",
        "op": "ConcatV2",
        "input": [
          "PartitionedCall/model_2/tf.math.multiply_83/Mul",
          "PartitionedCall/model_2/tf.compat.v1.nn.pool/max_pool",
          "PartitionedCall/model_2/tf.compat.v1.nn.pool_1/max_pool",
          "PartitionedCall/model_2/tf.compat.v1.nn.pool_2/max_pool",
          "PartitionedCall/model_2/tf.concat_4/concat/axis"
        ],
        "attr": {
          "N": { "i": "4" },
          "T": { "type": "DT_FLOAT" },
          "Tidx": { "type": "DT_INT32" }
        }
      },
      {
        "name": "PartitionedCall/model_2/tf.math.add_38/Add",
        "op": "_FusedConv2D",
        "input": ["PartitionedCall/model_2/tf.concat_4/concat", "3089", "3091"],
        "device": "/device:CPU:0",
        "attr": {
          "num_host_args": { "i": "0" },
          "data_format": { "s": "TkhXQw==" },
          "filter_format": { "s": "SFdJTw==" },
          "fused_ops": { "list": { "s": ["Qmlhc0FkZA=="] } },
          "num_args": { "i": "1" },
          "strides": { "list": { "i": ["1", "1", "1", "1"] } },
          "TArgs": { "list": { "type": ["DT_FLOAT"] } },
          "padding": { "s": "U0FNRQ==" },
          "use_cudnn_on_gpu": { "b": true },
          "leakyrelu_alpha": { "f": 0.2 },
          "epsilon": { "f": 0.0 },
          "T": { "type": "DT_FLOAT" },
          "explicit_paddings": { "list": {} },
          "dilations": { "list": { "i": ["1", "1", "1", "1"] } }
        }
      },
      {
        "name": "PartitionedCall/model_2/tf.math.sigmoid_26/Sigmoid",
        "op": "Sigmoid",
        "input": ["PartitionedCall/model_2/tf.math.add_38/Add"],
        "attr": { "T": { "type": "DT_FLOAT" } }
      },
      {
        "name": "PartitionedCall/model_2/tf.math.multiply_86/Mul",
        "op": "Mul",
        "input": [
          "PartitionedCall/model_2/tf.math.add_38/Add",
          "PartitionedCall/model_2/tf.math.sigmoid_26/Sigmoid"
        ],
        "attr": { "T": { "type": "DT_FLOAT" } }
      },
      {
        "name": "PartitionedCall/model_2/lambda//model.10/Resize",
        "op": "ResizeNearestNeighbor",
        "input": [
          "PartitionedCall/model_2/tf.math.multiply_86/Mul",
          "PartitionedCall/model_2/lambda//model.10/Resize/size"
        ],
        "attr": {
          "T": { "type": "DT_FLOAT" },
          "align_corners": { "b": false },
          "half_pixel_centers": { "b": false }
        }
      },
      {
        "name": "PartitionedCall/model_2/tf.concat_5/concat",
        "op": "ConcatV2",
        "input": [
          "PartitionedCall/model_2/lambda//model.10/Resize",
          "PartitionedCall/model_2/tf.math.multiply_64/Mul",
          "PartitionedCall/model_2/tf.concat_5/concat/axis"
        ],
        "attr": {
          "N": { "i": "2" },
          "T": { "type": "DT_FLOAT" },
          "Tidx": { "type": "DT_INT32" }
        }
      },
      {
        "name": "PartitionedCall/model_2/tf.math.add_39/Add",
        "op": "_FusedConv2D",
        "input": ["PartitionedCall/model_2/tf.concat_5/concat", "3093", "3095"],
        "device": "/device:CPU:0",
        "attr": {
          "num_host_args": { "i": "0" },
          "data_format": { "s": "TkhXQw==" },
          "filter_format": { "s": "SFdJTw==" },
          "fused_ops": { "list": { "s": ["Qmlhc0FkZA=="] } },
          "num_args": { "i": "1" },
          "strides": { "list": { "i": ["1", "1", "1", "1"] } },
          "TArgs": { "list": { "type": ["DT_FLOAT"] } },
          "padding": { "s": "U0FNRQ==" },
          "use_cudnn_on_gpu": { "b": true },
          "leakyrelu_alpha": { "f": 0.2 },
          "epsilon": { "f": 0.0 },
          "T": { "type": "DT_FLOAT" },
          "explicit_paddings": { "list": {} },
          "dilations": { "list": { "i": ["1", "1", "1", "1"] } }
        }
      },
      {
        "name": "PartitionedCall/model_2/tf.math.sigmoid_27/Sigmoid",
        "op": "Sigmoid",
        "input": ["PartitionedCall/model_2/tf.math.add_39/Add"],
        "attr": { "T": { "type": "DT_FLOAT" } }
      },
      {
        "name": "PartitionedCall/model_2/tf.math.multiply_89/Mul",
        "op": "Mul",
        "input": [
          "PartitionedCall/model_2/tf.math.add_39/Add",
          "PartitionedCall/model_2/tf.math.sigmoid_27/Sigmoid"
        ],
        "attr": { "T": { "type": "DT_FLOAT" } }
      },
      {
        "name": "PartitionedCall/model_2/tf.strided_slice_8/StridedSlice",
        "op": "StridedSlice",
        "input": [
          "PartitionedCall/model_2/tf.math.multiply_89/Mul",
          "3109",
          "3111",
          "PartitionedCall/model_2/tf.strided_slice_8/ones_like"
        ],
        "attr": {
          "shrink_axis_mask": { "i": "0" },
          "Index": { "type": "DT_INT64" },
          "new_axis_mask": { "i": "0" },
          "begin_mask": { "i": "15" },
          "T": { "type": "DT_FLOAT" },
          "end_mask": { "i": "7" },
          "ellipsis_mask": { "i": "0" }
        }
      },
      {
        "name": "PartitionedCall/model_2/tf.strided_slice_9/StridedSlice",
        "op": "StridedSlice",
        "input": [
          "PartitionedCall/model_2/tf.math.multiply_89/Mul",
          "3097",
          "3099",
          "PartitionedCall/model_2/tf.strided_slice_9/ones_like"
        ],
        "attr": {
          "shrink_axis_mask": { "i": "0" },
          "new_axis_mask": { "i": "0" },
          "Index": { "type": "DT_INT64" },
          "begin_mask": { "i": "7" },
          "end_mask": { "i": "7" },
          "T": { "type": "DT_FLOAT" },
          "ellipsis_mask": { "i": "0" }
        }
      },
      {
        "name": "PartitionedCall/model_2/tf.math.add_40/Add",
        "op": "_FusedConv2D",
        "input": [
          "PartitionedCall/model_2/tf.strided_slice_9/StridedSlice",
          "3101",
          "3103"
        ],
        "device": "/device:CPU:0",
        "attr": {
          "num_host_args": { "i": "0" },
          "data_format": { "s": "TkhXQw==" },
          "filter_format": { "s": "SFdJTw==" },
          "strides": { "list": { "i": ["1", "1", "1", "1"] } },
          "num_args": { "i": "1" },
          "fused_ops": { "list": { "s": ["Qmlhc0FkZA=="] } },
          "TArgs": { "list": { "type": ["DT_FLOAT"] } },
          "padding": { "s": "U0FNRQ==" },
          "use_cudnn_on_gpu": { "b": true },
          "leakyrelu_alpha": { "f": 0.2 },
          "epsilon": { "f": 0.0 },
          "T": { "type": "DT_FLOAT" },
          "explicit_paddings": { "list": {} },
          "dilations": { "list": { "i": ["1", "1", "1", "1"] } }
        }
      },
      {
        "name": "PartitionedCall/model_2/tf.math.sigmoid_28/Sigmoid",
        "op": "Sigmoid",
        "input": ["PartitionedCall/model_2/tf.math.add_40/Add"],
        "attr": { "T": { "type": "DT_FLOAT" } }
      },
      {
        "name": "PartitionedCall/model_2/tf.math.multiply_92/Mul",
        "op": "Mul",
        "input": [
          "PartitionedCall/model_2/tf.math.add_40/Add",
          "PartitionedCall/model_2/tf.math.sigmoid_28/Sigmoid"
        ],
        "attr": { "T": { "type": "DT_FLOAT" } }
      },
      {
        "name": "PartitionedCall/model_2/tf.math.add_41/Add",
        "op": "_FusedConv2D",
        "input": [
          "PartitionedCall/model_2/tf.math.multiply_92/Mul",
          "3105",
          "3107"
        ],
        "device": "/device:CPU:0",
        "attr": {
          "num_host_args": { "i": "0" },
          "data_format": { "s": "TkhXQw==" },
          "filter_format": { "s": "SFdJTw==" },
          "fused_ops": { "list": { "s": ["Qmlhc0FkZA=="] } },
          "num_args": { "i": "1" },
          "strides": { "list": { "i": ["1", "1", "1", "1"] } },
          "TArgs": { "list": { "type": ["DT_FLOAT"] } },
          "padding": { "s": "U0FNRQ==" },
          "use_cudnn_on_gpu": { "b": true },
          "leakyrelu_alpha": { "f": 0.2 },
          "epsilon": { "f": 0.0 },
          "T": { "type": "DT_FLOAT" },
          "explicit_paddings": { "list": {} },
          "dilations": { "list": { "i": ["1", "1", "1", "1"] } }
        }
      },
      {
        "name": "PartitionedCall/model_2/tf.math.sigmoid_29/Sigmoid",
        "op": "Sigmoid",
        "input": ["PartitionedCall/model_2/tf.math.add_41/Add"],
        "attr": { "T": { "type": "DT_FLOAT" } }
      },
      {
        "name": "PartitionedCall/model_2/tf.math.multiply_95/Mul",
        "op": "Mul",
        "input": [
          "PartitionedCall/model_2/tf.math.add_41/Add",
          "PartitionedCall/model_2/tf.math.sigmoid_29/Sigmoid"
        ],
        "attr": { "T": { "type": "DT_FLOAT" } }
      },
      {
        "name": "PartitionedCall/model_2/tf.concat_6/concat",
        "op": "ConcatV2",
        "input": [
          "PartitionedCall/model_2/tf.strided_slice_8/StridedSlice",
          "PartitionedCall/model_2/tf.strided_slice_9/StridedSlice",
          "PartitionedCall/model_2/tf.math.multiply_95/Mul",
          "PartitionedCall/model_2/tf.concat_6/concat/axis"
        ],
        "attr": {
          "N": { "i": "3" },
          "Tidx": { "type": "DT_INT32" },
          "T": { "type": "DT_FLOAT" }
        }
      },
      {
        "name": "PartitionedCall/model_2/tf.math.add_42/Add",
        "op": "_FusedConv2D",
        "input": ["PartitionedCall/model_2/tf.concat_6/concat", "3113", "3115"],
        "device": "/device:CPU:0",
        "attr": {
          "num_host_args": { "i": "0" },
          "data_format": { "s": "TkhXQw==" },
          "filter_format": { "s": "SFdJTw==" },
          "strides": { "list": { "i": ["1", "1", "1", "1"] } },
          "num_args": { "i": "1" },
          "fused_ops": { "list": { "s": ["Qmlhc0FkZA=="] } },
          "TArgs": { "list": { "type": ["DT_FLOAT"] } },
          "padding": { "s": "U0FNRQ==" },
          "use_cudnn_on_gpu": { "b": true },
          "leakyrelu_alpha": { "f": 0.2 },
          "epsilon": { "f": 0.0 },
          "T": { "type": "DT_FLOAT" },
          "explicit_paddings": { "list": {} },
          "dilations": { "list": { "i": ["1", "1", "1", "1"] } }
        }
      },
      {
        "name": "PartitionedCall/model_2/tf.math.sigmoid_30/Sigmoid",
        "op": "Sigmoid",
        "input": ["PartitionedCall/model_2/tf.math.add_42/Add"],
        "attr": { "T": { "type": "DT_FLOAT" } }
      },
      {
        "name": "PartitionedCall/model_2/tf.math.multiply_98/Mul",
        "op": "Mul",
        "input": [
          "PartitionedCall/model_2/tf.math.add_42/Add",
          "PartitionedCall/model_2/tf.math.sigmoid_30/Sigmoid"
        ],
        "attr": { "T": { "type": "DT_FLOAT" } }
      },
      {
        "name": "PartitionedCall/model_2/lambda_1//model.13/Resize",
        "op": "ResizeNearestNeighbor",
        "input": [
          "PartitionedCall/model_2/tf.math.multiply_98/Mul",
          "PartitionedCall/model_2/lambda_1//model.13/Resize/size"
        ],
        "attr": {
          "T": { "type": "DT_FLOAT" },
          "align_corners": { "b": false },
          "half_pixel_centers": { "b": false }
        }
      },
      {
        "name": "PartitionedCall/model_2/tf.concat_7/concat",
        "op": "ConcatV2",
        "input": [
          "PartitionedCall/model_2/lambda_1//model.13/Resize",
          "PartitionedCall/model_2/tf.math.multiply_41/Mul",
          "PartitionedCall/model_2/tf.concat_7/concat/axis"
        ],
        "attr": {
          "N": { "i": "2" },
          "T": { "type": "DT_FLOAT" },
          "Tidx": { "type": "DT_INT32" }
        }
      },
      {
        "name": "PartitionedCall/model_2/tf.math.add_43/Add",
        "op": "_FusedConv2D",
        "input": ["PartitionedCall/model_2/tf.concat_7/concat", "3117", "3119"],
        "device": "/device:CPU:0",
        "attr": {
          "num_host_args": { "i": "0" },
          "data_format": { "s": "TkhXQw==" },
          "filter_format": { "s": "SFdJTw==" },
          "strides": { "list": { "i": ["1", "1", "1", "1"] } },
          "num_args": { "i": "1" },
          "fused_ops": { "list": { "s": ["Qmlhc0FkZA=="] } },
          "TArgs": { "list": { "type": ["DT_FLOAT"] } },
          "padding": { "s": "U0FNRQ==" },
          "use_cudnn_on_gpu": { "b": true },
          "leakyrelu_alpha": { "f": 0.2 },
          "epsilon": { "f": 0.0 },
          "T": { "type": "DT_FLOAT" },
          "explicit_paddings": { "list": {} },
          "dilations": { "list": { "i": ["1", "1", "1", "1"] } }
        }
      },
      {
        "name": "PartitionedCall/model_2/tf.math.sigmoid_31/Sigmoid",
        "op": "Sigmoid",
        "input": ["PartitionedCall/model_2/tf.math.add_43/Add"],
        "attr": { "T": { "type": "DT_FLOAT" } }
      },
      {
        "name": "PartitionedCall/model_2/tf.math.multiply_101/Mul",
        "op": "Mul",
        "input": [
          "PartitionedCall/model_2/tf.math.add_43/Add",
          "PartitionedCall/model_2/tf.math.sigmoid_31/Sigmoid"
        ],
        "attr": { "T": { "type": "DT_FLOAT" } }
      },
      {
        "name": "PartitionedCall/model_2/tf.strided_slice_10/StridedSlice",
        "op": "StridedSlice",
        "input": [
          "PartitionedCall/model_2/tf.math.multiply_101/Mul",
          "3133",
          "3135",
          "PartitionedCall/model_2/tf.strided_slice_10/ones_like"
        ],
        "attr": {
          "shrink_axis_mask": { "i": "0" },
          "new_axis_mask": { "i": "0" },
          "Index": { "type": "DT_INT64" },
          "begin_mask": { "i": "15" },
          "end_mask": { "i": "7" },
          "T": { "type": "DT_FLOAT" },
          "ellipsis_mask": { "i": "0" }
        }
      },
      {
        "name": "PartitionedCall/model_2/tf.strided_slice_11/StridedSlice",
        "op": "StridedSlice",
        "input": [
          "PartitionedCall/model_2/tf.math.multiply_101/Mul",
          "3121",
          "3123",
          "PartitionedCall/model_2/tf.strided_slice_11/ones_like"
        ],
        "attr": {
          "shrink_axis_mask": { "i": "0" },
          "Index": { "type": "DT_INT64" },
          "new_axis_mask": { "i": "0" },
          "begin_mask": { "i": "7" },
          "end_mask": { "i": "7" },
          "T": { "type": "DT_FLOAT" },
          "ellipsis_mask": { "i": "0" }
        }
      },
      {
        "name": "PartitionedCall/model_2/tf.math.add_44/Add",
        "op": "_FusedConv2D",
        "input": [
          "PartitionedCall/model_2/tf.strided_slice_11/StridedSlice",
          "3125",
          "3127"
        ],
        "device": "/device:CPU:0",
        "attr": {
          "num_host_args": { "i": "0" },
          "data_format": { "s": "TkhXQw==" },
          "filter_format": { "s": "SFdJTw==" },
          "strides": { "list": { "i": ["1", "1", "1", "1"] } },
          "num_args": { "i": "1" },
          "fused_ops": { "list": { "s": ["Qmlhc0FkZA=="] } },
          "TArgs": { "list": { "type": ["DT_FLOAT"] } },
          "padding": { "s": "U0FNRQ==" },
          "use_cudnn_on_gpu": { "b": true },
          "leakyrelu_alpha": { "f": 0.2 },
          "epsilon": { "f": 0.0 },
          "T": { "type": "DT_FLOAT" },
          "explicit_paddings": { "list": {} },
          "dilations": { "list": { "i": ["1", "1", "1", "1"] } }
        }
      },
      {
        "name": "PartitionedCall/model_2/tf.math.sigmoid_32/Sigmoid",
        "op": "Sigmoid",
        "input": ["PartitionedCall/model_2/tf.math.add_44/Add"],
        "attr": { "T": { "type": "DT_FLOAT" } }
      },
      {
        "name": "PartitionedCall/model_2/tf.math.multiply_104/Mul",
        "op": "Mul",
        "input": [
          "PartitionedCall/model_2/tf.math.add_44/Add",
          "PartitionedCall/model_2/tf.math.sigmoid_32/Sigmoid"
        ],
        "attr": { "T": { "type": "DT_FLOAT" } }
      },
      {
        "name": "PartitionedCall/model_2/tf.math.add_45/Add",
        "op": "_FusedConv2D",
        "input": [
          "PartitionedCall/model_2/tf.math.multiply_104/Mul",
          "3129",
          "3131"
        ],
        "device": "/device:CPU:0",
        "attr": {
          "num_host_args": { "i": "0" },
          "data_format": { "s": "TkhXQw==" },
          "filter_format": { "s": "SFdJTw==" },
          "fused_ops": { "list": { "s": ["Qmlhc0FkZA=="] } },
          "num_args": { "i": "1" },
          "strides": { "list": { "i": ["1", "1", "1", "1"] } },
          "TArgs": { "list": { "type": ["DT_FLOAT"] } },
          "padding": { "s": "U0FNRQ==" },
          "use_cudnn_on_gpu": { "b": true },
          "leakyrelu_alpha": { "f": 0.2 },
          "epsilon": { "f": 0.0 },
          "T": { "type": "DT_FLOAT" },
          "explicit_paddings": { "list": {} },
          "dilations": { "list": { "i": ["1", "1", "1", "1"] } }
        }
      },
      {
        "name": "PartitionedCall/model_2/tf.math.sigmoid_33/Sigmoid",
        "op": "Sigmoid",
        "input": ["PartitionedCall/model_2/tf.math.add_45/Add"],
        "attr": { "T": { "type": "DT_FLOAT" } }
      },
      {
        "name": "PartitionedCall/model_2/tf.math.multiply_107/Mul",
        "op": "Mul",
        "input": [
          "PartitionedCall/model_2/tf.math.add_45/Add",
          "PartitionedCall/model_2/tf.math.sigmoid_33/Sigmoid"
        ],
        "attr": { "T": { "type": "DT_FLOAT" } }
      },
      {
        "name": "PartitionedCall/model_2/tf.concat_8/concat",
        "op": "ConcatV2",
        "input": [
          "PartitionedCall/model_2/tf.strided_slice_10/StridedSlice",
          "PartitionedCall/model_2/tf.strided_slice_11/StridedSlice",
          "PartitionedCall/model_2/tf.math.multiply_107/Mul",
…
        "attr": { "T": { "type": "DT_FLOAT" } }
      },
      {
        "name": "PartitionedCall/model_2/tf.math.sigmoid_48/Sigmoid",
        "op": "Sigmoid",
        "input": ["PartitionedCall/model_2/tf.math.add_62/Add"],
        "attr": { "T": { "type": "DT_FLOAT" } }
      },
      {
        "name": "PartitionedCall/model_2/tf.concat_12/concat",
        "op": "ConcatV2",
        "input": [
          "PartitionedCall/model_2/tf.math.multiply_140/Mul",
          "PartitionedCall/model_2/tf.math.multiply_86/Mul",
          "PartitionedCall/model_2/tf.concat_12/concat/axis"
        ],
        "attr": {
          "N": { "i": "2" },
          "Tidx": { "type": "DT_INT32" },
          "T": { "type": "DT_FLOAT" }
        }
      },
      {
        "name": "PartitionedCall/model_2/tf.math.multiply_149/Mul",
        "op": "Mul",
        "input": [
          "PartitionedCall/model_2/tf.math.add_61/Add",
          "PartitionedCall/model_2/tf.math.sigmoid_47/Sigmoid"
        ],
        "attr": { "T": { "type": "DT_FLOAT" } }
      },
      {
        "name": "PartitionedCall/model_2/tf.math.multiply_152/Mul",
        "op": "Mul",
        "input": [
          "PartitionedCall/model_2/tf.math.add_62/Add",
          "PartitionedCall/model_2/tf.math.sigmoid_48/Sigmoid"
        ],
        "attr": { "T": { "type": "DT_FLOAT" } }
      },
      {
        "name": "PartitionedCall/model_2/tf.math.add_63/Add",
        "op": "_FusedConv2D",
        "input": [
          "PartitionedCall/model_2/tf.concat_12/concat",
          "3177",
          "3179"
        ],
        "device": "/device:CPU:0",
        "attr": {
          "num_host_args": { "i": "0" },
          "data_format": { "s": "TkhXQw==" },
          "filter_format": { "s": "SFdJTw==" },
          "fused_ops": { "list": { "s": ["Qmlhc0FkZA=="] } },
          "num_args": { "i": "1" },
          "strides": { "list": { "i": ["1", "1", "1", "1"] } },
          "TArgs": { "list": { "type": ["DT_FLOAT"] } },
          "padding": { "s": "U0FNRQ==" },
          "use_cudnn_on_gpu": { "b": true },
          "leakyrelu_alpha": { "f": 0.2 },
          "epsilon": { "f": 0.0 },
          "T": { "type": "DT_FLOAT" },
          "explicit_paddings": { "list": {} },
          "dilations": { "list": { "i": ["1", "1", "1", "1"] } }
        }
      },
      {
        "name": "PartitionedCall/model_2/tf.math.add_64/Add",
        "op": "_FusedConv2D",
        "input": [
          "PartitionedCall/model_2/tf.math.multiply_149/Mul",
          "3255",
          "3265"
        ],
        "device": "/device:CPU:0",
        "attr": {
          "num_host_args": { "i": "0" },
          "data_format": { "s": "TkhXQw==" },
          "filter_format": { "s": "SFdJTw==" },
          "strides": { "list": { "i": ["1", "1", "1", "1"] } },
          "num_args": { "i": "1" },
          "fused_ops": { "list": { "s": ["Qmlhc0FkZA=="] } },
          "TArgs": { "list": { "type": ["DT_FLOAT"] } },
          "padding": { "s": "U0FNRQ==" },
          "use_cudnn_on_gpu": { "b": true },
          "leakyrelu_alpha": { "f": 0.2 },
          "epsilon": { "f": 0.0 },
          "T": { "type": "DT_FLOAT" },
          "explicit_paddings": { "list": {} },
          "dilations": { "list": { "i": ["1", "1", "1", "1"] } }
        }
      },
      {
        "name": "PartitionedCall/model_2/tf.math.add_65/Add",
        "op": "_FusedConv2D",
        "input": [
          "PartitionedCall/model_2/tf.math.multiply_152/Mul",
          "3253",
          "3267"
        ],
        "device": "/device:CPU:0",
        "attr": {
          "num_host_args": { "i": "0" },
          "data_format": { "s": "TkhXQw==" },
          "filter_format": { "s": "SFdJTw==" },
          "fused_ops": { "list": { "s": ["Qmlhc0FkZA=="] } },
          "num_args": { "i": "1" },
          "strides": { "list": { "i": ["1", "1", "1", "1"] } },
          "TArgs": { "list": { "type": ["DT_FLOAT"] } },
          "padding": { "s": "U0FNRQ==" },
          "use_cudnn_on_gpu": { "b": true },
          "leakyrelu_alpha": { "f": 0.2 },
          "epsilon": { "f": 0.0 },
          "T": { "type": "DT_FLOAT" },
          "explicit_paddings": { "list": {} },
          "dilations": { "list": { "i": ["1", "1", "1", "1"] } }
        }
      },
      {
        "name": "PartitionedCall/model_2/tf.math.sigmoid_49/Sigmoid",
        "op": "Sigmoid",
        "input": ["PartitionedCall/model_2/tf.math.add_63/Add"],
        "attr": { "T": { "type": "DT_FLOAT" } }
      },
      {
        "name": "PartitionedCall/model_2/tf.concat_13/concat",
        "op": "ConcatV2",
        "input": [
          "PartitionedCall/model_2/tf.math.add_64/Add",
          "PartitionedCall/model_2/tf.math.add_65/Add",
          "PartitionedCall/model_2/tf.concat_13/concat/axis"
        ],
        "attr": {
          "N": { "i": "2" },
          "T": { "type": "DT_FLOAT" },
          "Tidx": { "type": "DT_INT32" }
        }
      },
      {
        "name": "PartitionedCall/model_2/tf.math.multiply_155/Mul",
        "op": "Mul",
        "input": [
          "PartitionedCall/model_2/tf.math.add_63/Add",
          "PartitionedCall/model_2/tf.math.sigmoid_49/Sigmoid"
        ],
        "attr": { "T": { "type": "DT_FLOAT" } }
      },
      {
        "name": "PartitionedCall/model_2/tf.compat.v1.transpose_1/transpose",
        "op": "Transpose",
        "input": [
          "PartitionedCall/model_2/tf.concat_13/concat",
          "PartitionedCall/model_2/tf.compat.v1.transpose_1/transpose/perm"
        ],
        "attr": { "Tperm": { "type": "DT_INT32" }, "T": { "type": "DT_FLOAT" } }
      },
      {
        "name": "PartitionedCall/model_2/tf.strided_slice_14/StridedSlice",
        "op": "StridedSlice",
        "input": [
          "PartitionedCall/model_2/tf.math.multiply_155/Mul",
          "3193",
          "3195",
          "PartitionedCall/model_2/tf.strided_slice_14/ones_like"
        ],
        "attr": {
          "shrink_axis_mask": { "i": "0" },
          "new_axis_mask": { "i": "0" },
          "Index": { "type": "DT_INT64" },
          "begin_mask": { "i": "15" },
          "end_mask": { "i": "7" },
          "T": { "type": "DT_FLOAT" },
          "ellipsis_mask": { "i": "0" }
        }
      },
      {
        "name": "PartitionedCall/model_2/tf.strided_slice_15/StridedSlice",
        "op": "StridedSlice",
        "input": [
          "PartitionedCall/model_2/tf.math.multiply_155/Mul",
          "3181",
          "3183",
          "PartitionedCall/model_2/tf.strided_slice_15/ones_like"
        ],
        "attr": {
          "shrink_axis_mask": { "i": "0" },
          "new_axis_mask": { "i": "0" },
          "Index": { "type": "DT_INT64" },
          "begin_mask": { "i": "7" },
          "T": { "type": "DT_FLOAT" },
          "end_mask": { "i": "7" },
          "ellipsis_mask": { "i": "0" }
        }
      },
      {
        "name": "PartitionedCall/model_2/tf.reshape_1/Reshape",
        "op": "Reshape",
        "input": [
          "PartitionedCall/model_2/tf.compat.v1.transpose_1/transpose",
          "PartitionedCall/model_2/tf.reshape_1/Reshape/shape"
        ],
        "attr": {
          "T": { "type": "DT_FLOAT" },
          "Tshape": { "type": "DT_INT32" }
        }
      },
      {
        "name": "PartitionedCall/model_2/tf.math.add_66/Add",
        "op": "_FusedConv2D",
        "input": [
          "PartitionedCall/model_2/tf.strided_slice_15/StridedSlice",
          "3185",
          "3187"
        ],
        "device": "/device:CPU:0",
        "attr": {
          "num_host_args": { "i": "0" },
          "data_format": { "s": "TkhXQw==" },
          "filter_format": { "s": "SFdJTw==" },
          "strides": { "list": { "i": ["1", "1", "1", "1"] } },
          "num_args": { "i": "1" },
          "fused_ops": { "list": { "s": ["Qmlhc0FkZA=="] } },
          "TArgs": { "list": { "type": ["DT_FLOAT"] } },
          "padding": { "s": "U0FNRQ==" },
          "use_cudnn_on_gpu": { "b": true },
          "leakyrelu_alpha": { "f": 0.2 },
          "epsilon": { "f": 0.0 },
          "T": { "type": "DT_FLOAT" },
          "explicit_paddings": { "list": {} },
          "dilations": { "list": { "i": ["1", "1", "1", "1"] } }
        }
      },
      {
        "name": "PartitionedCall/model_2/tf.math.sigmoid_50/Sigmoid",
        "op": "Sigmoid",
        "input": ["PartitionedCall/model_2/tf.math.add_66/Add"],
        "attr": { "T": { "type": "DT_FLOAT" } }
      },
      {
        "name": "PartitionedCall/model_2/tf.math.multiply_158/Mul",
        "op": "Mul",
        "input": [
          "PartitionedCall/model_2/tf.math.add_66/Add",
          "PartitionedCall/model_2/tf.math.sigmoid_50/Sigmoid"
        ],
        "attr": { "T": { "type": "DT_FLOAT" } }
      },
      {
        "name": "PartitionedCall/model_2/tf.math.add_67/Add",
        "op": "_FusedConv2D",
        "input": [
          "PartitionedCall/model_2/tf.math.multiply_158/Mul",
          "3189",
          "3191"
        ],
        "device": "/device:CPU:0",
        "attr": {
          "num_host_args": { "i": "0" },
          "data_format": { "s": "TkhXQw==" },
          "filter_format": { "s": "SFdJTw==" },
          "fused_ops": { "list": { "s": ["Qmlhc0FkZA=="] } },
          "num_args": { "i": "1" },
          "strides": { "list": { "i": ["1", "1", "1", "1"] } },
          "TArgs": { "list": { "type": ["DT_FLOAT"] } },
          "padding": { "s": "U0FNRQ==" },
          "use_cudnn_on_gpu": { "b": true },
          "leakyrelu_alpha": { "f": 0.2 },
          "epsilon": { "f": 0.0 },
          "T": { "type": "DT_FLOAT" },
          "explicit_paddings": { "list": {} },
          "dilations": { "list": { "i": ["1", "1", "1", "1"] } }
        }
      },
      {
        "name": "PartitionedCall/model_2/tf.math.sigmoid_51/Sigmoid",
        "op": "Sigmoid",
        "input": ["PartitionedCall/model_2/tf.math.add_67/Add"],
        "attr": { "T": { "type": "DT_FLOAT" } }
      },
      {
        "name": "PartitionedCall/model_2/tf.math.multiply_161/Mul",
        "op": "Mul",
        "input": [
          "PartitionedCall/model_2/tf.math.add_67/Add",
          "PartitionedCall/model_2/tf.math.sigmoid_51/Sigmoid"
        ],
        "attr": { "T": { "type": "DT_FLOAT" } }
      },
      {
        "name": "PartitionedCall/model_2/tf.concat_14/concat",
        "op": "ConcatV2",
        "input": [
          "PartitionedCall/model_2/tf.strided_slice_14/StridedSlice",
          "PartitionedCall/model_2/tf.strided_slice_15/StridedSlice",
          "PartitionedCall/model_2/tf.math.multiply_161/Mul",
          "PartitionedCall/model_2/tf.concat_14/concat/axis"
        ],
        "attr": {
          "N": { "i": "3" },
          "T": { "type": "DT_FLOAT" },
          "Tidx": { "type": "DT_INT32" }
        }
      },
      {
        "name": "PartitionedCall/model_2/tf.math.add_68/Add",
        "op": "_FusedConv2D",
        "input": [
          "PartitionedCall/model_2/tf.concat_14/concat",
          "3197",
          "3199"
        ],
        "device": "/device:CPU:0",
        "attr": {
          "num_host_args": { "i": "0" },
          "data_format": { "s": "TkhXQw==" },
          "filter_format": { "s": "SFdJTw==" },
          "strides": { "list": { "i": ["1", "1", "1", "1"] } },
          "num_args": { "i": "1" },
          "fused_ops": { "list": { "s": ["Qmlhc0FkZA=="] } },
          "TArgs": { "list": { "type": ["DT_FLOAT"] } },
          "padding": { "s": "U0FNRQ==" },
          "use_cudnn_on_gpu": { "b": true },
          "leakyrelu_alpha": { "f": 0.2 },
          "epsilon": { "f": 0.0 },
          "T": { "type": "DT_FLOAT" },
          "explicit_paddings": { "list": {} },
          "dilations": { "list": { "i": ["1", "1", "1", "1"] } }
        }
      },
      {
        "name": "PartitionedCall/model_2/tf.math.sigmoid_52/Sigmoid",
        "op": "Sigmoid",
        "input": ["PartitionedCall/model_2/tf.math.add_68/Add"],
        "attr": { "T": { "type": "DT_FLOAT" } }
      },
      {
        "name": "PartitionedCall/model_2/tf.math.multiply_164/Mul",
        "op": "Mul",
        "input": [
          "PartitionedCall/model_2/tf.math.add_68/Add",
          "PartitionedCall/model_2/tf.math.sigmoid_52/Sigmoid"
        ],
        "attr": { "T": { "type": "DT_FLOAT" } }
      },
      {
        "name": "PartitionedCall/model_2/tf.math.add_69/Add",
        "op": "_FusedConv2D",
        "input": [
          "PartitionedCall/model_2/tf.math.multiply_164/Mul",
          "3203",
          "3215"
        ],
        "device": "/device:CPU:0",
        "attr": {
          "num_host_args": { "i": "0" },
          "data_format": { "s": "TkhXQw==" },
          "filter_format": { "s": "SFdJTw==" },
          "fused_ops": { "list": { "s": ["Qmlhc0FkZA=="] } },
          "num_args": { "i": "1" },
          "strides": { "list": { "i": ["1", "1", "1", "1"] } },
          "TArgs": { "list": { "type": ["DT_FLOAT"] } },
          "padding": { "s": "U0FNRQ==" },
          "use_cudnn_on_gpu": { "b": true },
          "leakyrelu_alpha": { "f": 0.2 },
          "epsilon": { "f": 0.0 },
          "T": { "type": "DT_FLOAT" },
          "explicit_paddings": { "list": {} },
          "dilations": { "list": { "i": ["1", "1", "1", "1"] } }
        }
      },
      {
        "name": "PartitionedCall/model_2/tf.math.add_70/Add",
        "op": "_FusedConv2D",
        "input": [
          "PartitionedCall/model_2/tf.math.multiply_164/Mul",
          "3201",
          "3213"
        ],
        "device": "/device:CPU:0",
        "attr": {
          "num_host_args": { "i": "0" },
          "data_format": { "s": "TkhXQw==" },
          "filter_format": { "s": "SFdJTw==" },
          "strides": { "list": { "i": ["1", "1", "1", "1"] } },
          "num_args": { "i": "1" },
          "fused_ops": { "list": { "s": ["Qmlhc0FkZA=="] } },
          "TArgs": { "list": { "type": ["DT_FLOAT"] } },
          "padding": { "s": "U0FNRQ==" },
          "use_cudnn_on_gpu": { "b": true },
          "leakyrelu_alpha": { "f": 0.2 },
          "epsilon": { "f": 0.0 },
          "T": { "type": "DT_FLOAT" },
          "explicit_paddings": { "list": {} },
          "dilations": { "list": { "i": ["1", "1", "1", "1"] } }
        }
      },
      {
        "name": "PartitionedCall/model_2/tf.math.sigmoid_53/Sigmoid",
        "op": "Sigmoid",
        "input": ["PartitionedCall/model_2/tf.math.add_69/Add"],
        "attr": { "T": { "type": "DT_FLOAT" } }
      },
      {
        "name": "PartitionedCall/model_2/tf.math.sigmoid_54/Sigmoid",
        "op": "Sigmoid",
        "input": ["PartitionedCall/model_2/tf.math.add_70/Add"],
        "attr": { "T": { "type": "DT_FLOAT" } }
      },
      {
        "name": "PartitionedCall/model_2/tf.math.multiply_167/Mul",
        "op": "Mul",
        "input": [
          "PartitionedCall/model_2/tf.math.add_69/Add",
          "PartitionedCall/model_2/tf.math.sigmoid_53/Sigmoid"
        ],
        "attr": { "T": { "type": "DT_FLOAT" } }
      },
      {
        "name": "PartitionedCall/model_2/tf.math.multiply_170/Mul",
        "op": "Mul",
        "input": [
          "PartitionedCall/model_2/tf.math.add_70/Add",
          "PartitionedCall/model_2/tf.math.sigmoid_54/Sigmoid"
        ],
        "attr": { "T": { "type": "DT_FLOAT" } }
      },
      {
        "name": "PartitionedCall/model_2/tf.math.add_71/Add",
        "op": "_FusedConv2D",
        "input": [
          "PartitionedCall/model_2/tf.math.multiply_167/Mul",
          "3227",
          "3239"
        ],
        "device": "/device:CPU:0",
        "attr": {
          "num_host_args": { "i": "0" },
          "data_format": { "s": "TkhXQw==" },
          "filter_format": { "s": "SFdJTw==" },
          "fused_ops": { "list": { "s": ["Qmlhc0FkZA=="] } },
          "num_args": { "i": "1" },
          "strides": { "list": { "i": ["1", "1", "1", "1"] } },
          "TArgs": { "list": { "type": ["DT_FLOAT"] } },
          "padding": { "s": "U0FNRQ==" },
          "use_cudnn_on_gpu": { "b": true },
          "leakyrelu_alpha": { "f": 0.2 },
          "epsilon": { "f": 0.0 },
          "T": { "type": "DT_FLOAT" },
          "explicit_paddings": { "list": {} },
          "dilations": { "list": { "i": ["1", "1", "1", "1"] } }
        }
      },
      {
        "name": "PartitionedCall/model_2/tf.math.add_72/Add",
        "op": "_FusedConv2D",
        "input": [
          "PartitionedCall/model_2/tf.math.multiply_170/Mul",
          "3225",
          "3237"
        ],
        "device": "/device:CPU:0",
        "attr": {
          "num_host_args": { "i": "0" },
          "data_format": { "s": "TkhXQw==" },
          "filter_format": { "s": "SFdJTw==" },
          "fused_ops": { "list": { "s": ["Qmlhc0FkZA=="] } },
          "num_args": { "i": "1" },
          "strides": { "list": { "i": ["1", "1", "1", "1"] } },
          "TArgs": { "list": { "type": ["DT_FLOAT"] } },
          "padding": { "s": "U0FNRQ==" },
          "use_cudnn_on_gpu": { "b": true },
          "leakyrelu_alpha": { "f": 0.2 },
          "epsilon": { "f": 0.0 },
          "T": { "type": "DT_FLOAT" },
          "explicit_paddings": { "list": {} },
          "dilations": { "list": { "i": ["1", "1", "1", "1"] } }
        }
      },
      {
        "name": "PartitionedCall/model_2/tf.math.sigmoid_55/Sigmoid",
        "op": "Sigmoid",
        "input": ["PartitionedCall/model_2/tf.math.add_71/Add"],
        "attr": { "T": { "type": "DT_FLOAT" } }
      },
      {
        "name": "PartitionedCall/model_2/tf.math.sigmoid_56/Sigmoid",
        "op": "Sigmoid",
        "input": ["PartitionedCall/model_2/tf.math.add_72/Add"],
        "attr": { "T": { "type": "DT_FLOAT" } }
      },
      {
        "name": "PartitionedCall/model_2/tf.math.multiply_173/Mul",
        "op": "Mul",
        "input": [
          "PartitionedCall/model_2/tf.math.add_71/Add",
          "PartitionedCall/model_2/tf.math.sigmoid_55/Sigmoid"
        ],
        "attr": { "T": { "type": "DT_FLOAT" } }
      },
      {
        "name": "PartitionedCall/model_2/tf.math.multiply_176/Mul",
        "op": "Mul",
        "input": [
          "PartitionedCall/model_2/tf.math.add_72/Add",
          "PartitionedCall/model_2/tf.math.sigmoid_56/Sigmoid"
        ],
        "attr": { "T": { "type": "DT_FLOAT" } }
      },
      {
        "name": "PartitionedCall/model_2/tf.math.add_73/Add",
        "op": "_FusedConv2D",
        "input": [
          "PartitionedCall/model_2/tf.math.multiply_173/Mul",
          "3251",
          "3261"
        ],
        "device": "/device:CPU:0",
        "attr": {
          "num_host_args": { "i": "0" },
          "data_format": { "s": "TkhXQw==" },
          "filter_format": { "s": "SFdJTw==" },
          "fused_ops": { "list": { "s": ["Qmlhc0FkZA=="] } },
          "num_args": { "i": "1" },
          "strides": { "list": { "i": ["1", "1", "1", "1"] } },
          "TArgs": { "list": { "type": ["DT_FLOAT"] } },
          "padding": { "s": "U0FNRQ==" },
          "use_cudnn_on_gpu": { "b": true },
          "leakyrelu_alpha": { "f": 0.2 },
          "epsilon": { "f": 0.0 },
          "T": { "type": "DT_FLOAT" },
          "explicit_paddings": { "list": {} },
          "dilations": { "list": { "i": ["1", "1", "1", "1"] } }
        }
      },
      {
        "name": "PartitionedCall/model_2/tf.math.add_74/Add",
        "op": "_FusedConv2D",
        "input": [
          "PartitionedCall/model_2/tf.math.multiply_176/Mul",
          "3249",
          "3263"
        ],
        "device": "/device:CPU:0",
        "attr": {
          "num_host_args": { "i": "0" },
          "data_format": { "s": "TkhXQw==" },
          "filter_format": { "s": "SFdJTw==" },
          "fused_ops": { "list": { "s": ["Qmlhc0FkZA=="] } },
          "num_args": { "i": "1" },
          "strides": { "list": { "i": ["1", "1", "1", "1"] } },
          "TArgs": { "list": { "type": ["DT_FLOAT"] } },
          "padding": { "s": "U0FNRQ==" },
          "use_cudnn_on_gpu": { "b": true },
          "leakyrelu_alpha": { "f": 0.2 },
          "epsilon": { "f": 0.0 },
          "T": { "type": "DT_FLOAT" },
          "explicit_paddings": { "list": {} },
          "dilations": { "list": { "i": ["1", "1", "1", "1"] } }
        }
      },
      {
        "name": "PartitionedCall/model_2/tf.concat_15/concat",
        "op": "ConcatV2",
        "input": [
          "PartitionedCall/model_2/tf.math.add_73/Add",
          "PartitionedCall/model_2/tf.math.add_74/Add",
          "PartitionedCall/model_2/tf.concat_15/concat/axis"
        ],
        "attr": {
          "N": { "i": "2" },
          "Tidx": { "type": "DT_INT32" },
          "T": { "type": "DT_FLOAT" }
        }
      },
      {
        "name": "PartitionedCall/model_2/tf.compat.v1.transpose_2/transpose",
        "op": "Transpose",
        "input": [
          "PartitionedCall/model_2/tf.concat_15/concat",
          "PartitionedCall/model_2/tf.compat.v1.transpose_2/transpose/perm"
        ],
        "attr": { "Tperm": { "type": "DT_INT32" }, "T": { "type": "DT_FLOAT" } }
      },
      {
        "name": "PartitionedCall/model_2/tf.reshape_2/Reshape",
        "op": "Reshape",
        "input": [
          "PartitionedCall/model_2/tf.compat.v1.transpose_2/transpose",
          "PartitionedCall/model_2/tf.reshape_2/Reshape/shape"
        ],
        "attr": {
          "T": { "type": "DT_FLOAT" },
          "Tshape": { "type": "DT_INT32" }
        }
      },
      {
        "name": "PartitionedCall/model_2/tf.concat_16/concat",
        "op": "ConcatV2",
        "input": [
          "PartitionedCall/model_2/tf.reshape/Reshape",
          "PartitionedCall/model_2/tf.reshape_1/Reshape",
          "PartitionedCall/model_2/tf.reshape_2/Reshape",
          "PartitionedCall/model_2/tf.concat_16/concat/axis"
        ],
        "attr": {
          "N": { "i": "3" },
          "Tidx": { "type": "DT_INT32" },
          "T": { "type": "DT_FLOAT" }
        }
      },
      {
        "name": "PartitionedCall/model_2/tf.strided_slice_17/StridedSlice",
        "op": "StridedSlice",
        "input": [
          "PartitionedCall/model_2/tf.concat_16/concat",
          "3293",
          "3295",
          "PartitionedCall/model_2/tf.strided_slice_17/StridedSlice/strides"
        ],
        "attr": {
          "shrink_axis_mask": { "i": "0" },
          "new_axis_mask": { "i": "0" },
          "Index": { "type": "DT_INT64" },
          "begin_mask": { "i": "5" },
          "end_mask": { "i": "5" },
          "T": { "type": "DT_FLOAT" },
          "ellipsis_mask": { "i": "0" }
        }
      },
      {
        "name": "PartitionedCall/model_2/tf.strided_slice_16/StridedSlice",
        "op": "StridedSlice",
        "input": [
          "PartitionedCall/model_2/tf.concat_16/concat",
          "3273",
          "3275",
          "PartitionedCall/model_2/tf.strided_slice_16/StridedSlice/strides"
        ],
        "attr": {
          "shrink_axis_mask": { "i": "0" },
          "Index": { "type": "DT_INT64" },
          "new_axis_mask": { "i": "0" },
          "begin_mask": { "i": "7" },
          "end_mask": { "i": "5" },
          "T": { "type": "DT_FLOAT" },
          "ellipsis_mask": { "i": "0" }
        }
      },
      {
        "name": "PartitionedCall/model_2/tf.math.sigmoid_57/Sigmoid",
        "op": "Sigmoid",
        "input": ["PartitionedCall/model_2/tf.strided_slice_17/StridedSlice"],
        "attr": { "T": { "type": "DT_FLOAT" } }
      },
      {
        "name": "PartitionedCall/model_2/tf.reshape_3/Reshape",
        "op": "Reshape",
        "input": [
          "PartitionedCall/model_2/tf.strided_slice_16/StridedSlice",
          "PartitionedCall/model_2/tf.reshape_3/Reshape/shape"
        ],
        "attr": {
          "T": { "type": "DT_FLOAT" },
          "Tshape": { "type": "DT_INT32" }
        }
      },
      {
        "name": "PartitionedCall/model_2/tf.compat.v1.transpose_4/transpose",
        "op": "Transpose",
        "input": [
          "PartitionedCall/model_2/tf.reshape_3/Reshape",
          "PartitionedCall/model_2/tf.compat.v1.transpose_4/transpose/perm"
        ],
        "attr": { "Tperm": { "type": "DT_INT32" }, "T": { "type": "DT_FLOAT" } }
      },
      {
        "name": "PartitionedCall/model_2/tf.compat.v1.transpose_5/transpose",
        "op": "Transpose",
        "input": [
          "PartitionedCall/model_2/tf.compat.v1.transpose_4/transpose",
          "PartitionedCall/model_2/tf.compat.v1.transpose_5/transpose/perm"
        ],
        "attr": { "Tperm": { "type": "DT_INT32" }, "T": { "type": "DT_FLOAT" } }
      },
      {
        "name": "PartitionedCall/model_2/tf.nn.softmax_1/Softmax",
        "op": "Softmax",
        "input": ["PartitionedCall/model_2/tf.compat.v1.transpose_5/transpose"],
        "attr": { "T": { "type": "DT_FLOAT" } }
      },
      {
        "name": "PartitionedCall/model_2/tf.nn.convolution_63/convolution",
        "op": "Conv2D",
        "input": ["PartitionedCall/model_2/tf.nn.softmax_1/Softmax", "3277"],
        "device": "/device:CPU:0",
        "attr": {
          "padding": { "s": "U0FNRQ==" },
          "data_format": { "s": "TkhXQw==" },
          "strides": { "list": { "i": ["1", "1", "1", "1"] } },
          "use_cudnn_on_gpu": { "b": true },
          "T": { "type": "DT_FLOAT" },
          "explicit_paddings": { "list": {} },
          "dilations": { "list": { "i": ["1", "1", "1", "1"] } }
        }
      },
      {
        "name": "PartitionedCall/model_2/tf.compat.v1.transpose_8/transpose",
        "op": "Transpose",
        "input": [
          "PartitionedCall/model_2/tf.nn.convolution_63/convolution",
          "PartitionedCall/model_2/tf.compat.v1.transpose_8/transpose/perm"
        ],
        "attr": { "Tperm": { "type": "DT_INT32" }, "T": { "type": "DT_FLOAT" } }
      },
      {
        "name": "PartitionedCall/model_2/tf.reshape_4/Reshape",
        "op": "Reshape",
        "input": [
          "PartitionedCall/model_2/tf.compat.v1.transpose_8/transpose",
          "PartitionedCall/model_2/tf.reshape_4/Reshape/shape"
        ],
        "attr": {
          "T": { "type": "DT_FLOAT" },
          "Tshape": { "type": "DT_INT32" }
        }
      },
      {
        "name": "PartitionedCall/model_2/tf.strided_slice_19/StridedSlice",
        "op": "StridedSlice",
        "input": [
          "PartitionedCall/model_2/tf.reshape_4/Reshape",
          "3279",
          "3281",
          "PartitionedCall/model_2/tf.strided_slice_19/ones_like"
        ],
        "attr": {
          "shrink_axis_mask": { "i": "0" },
          "new_axis_mask": { "i": "0" },
          "Index": { "type": "DT_INT64" },
          "begin_mask": { "i": "5" },
          "T": { "type": "DT_FLOAT" },
          "end_mask": { "i": "5" },
          "ellipsis_mask": { "i": "0" }
        }
      },
      {
        "name": "PartitionedCall/model_2/tf.strided_slice_18/StridedSlice",
        "op": "StridedSlice",
        "input": [
          "PartitionedCall/model_2/tf.reshape_4/Reshape",
          "3283",
          "3285",
          "PartitionedCall/model_2/tf.strided_slice_18/ones_like"
        ],
        "attr": {
          "shrink_axis_mask": { "i": "0" },
          "new_axis_mask": { "i": "0" },
          "Index": { "type": "DT_INT64" },
          "begin_mask": { "i": "7" },
          "T": { "type": "DT_FLOAT" },
          "end_mask": { "i": "5" },
          "ellipsis_mask": { "i": "0" }
        }
      },
      {
        "name": "PartitionedCall/model_2/tf.math.add_75/Add",
        "op": "AddV2",
        "input": [
          "3287",
          "PartitionedCall/model_2/tf.strided_slice_19/StridedSlice"
        ],
        "attr": { "T": { "type": "DT_FLOAT" } }
      },
      {
        "name": "PartitionedCall/model_2/tf.math.subtract/Sub",
        "op": "Sub",
        "input": [
          "3289",
          "PartitionedCall/model_2/tf.strided_slice_18/StridedSlice"
        ],
        "attr": { "T": { "type": "DT_FLOAT" } }
      },
      {
        "name": "PartitionedCall/model_2/tf.math.add_76/Add",
        "op": "AddV2",
        "input": [
          "PartitionedCall/model_2/tf.math.subtract/Sub",
          "PartitionedCall/model_2/tf.math.add_75/Add"
        ],
        "attr": { "T": { "type": "DT_FLOAT" } }
      },
      {
        "name": "PartitionedCall/model_2/tf.math.subtract_1/Sub",
        "op": "Sub",
        "input": [
          "PartitionedCall/model_2/tf.math.add_75/Add",
          "PartitionedCall/model_2/tf.math.subtract/Sub"
        ],
        "attr": { "T": { "type": "DT_FLOAT" } }
      },
      {
        "name": "PartitionedCall/model_2/tf.math.divide/truediv",
        "op": "Mul",
        "input": [
          "PartitionedCall/model_2/tf.math.add_76/Add",
          "ConstantFolding/PartitionedCall/model_2/tf.math.divide/truediv_recip"
        ],
        "attr": { "T": { "type": "DT_FLOAT" } }
      },
      {
        "name": "PartitionedCall/model_2/tf.concat_17/concat",
        "op": "ConcatV2",
        "input": [
          "PartitionedCall/model_2/tf.math.divide/truediv",
          "PartitionedCall/model_2/tf.math.subtract_1/Sub",
          "PartitionedCall/model_2/tf.concat_17/concat/axis"
        ],
        "attr": {
          "N": { "i": "2" },
          "T": { "type": "DT_FLOAT" },
          "Tidx": { "type": "DT_INT32" }
        }
      },
      {
        "name": "PartitionedCall/model_2/tf.math.multiply_185/Mul",
        "op": "Mul",
        "input": [
          "PartitionedCall/model_2/tf.concat_17/concat",
          "PartitionedCall/model_2/tf.math.multiply_185/Mul/y"
        ],
        "attr": { "T": { "type": "DT_FLOAT" } }
      },
      {
        "name": "PartitionedCall/model_2/output0/concat",
        "op": "ConcatV2",
        "input": [
          "PartitionedCall/model_2/tf.math.multiply_185/Mul",
          "PartitionedCall/model_2/tf.math.sigmoid_57/Sigmoid",
          "PartitionedCall/model_2/output0/concat/axis"
        ],
        "attr": {
          "N": { "i": "2" },
          "Tidx": { "type": "DT_INT32" },
          "T": { "type": "DT_FLOAT" }
        }
      },
      {
        "name": "Identity",
        "op": "Identity",
        "input": ["PartitionedCall/model_2/output0/concat"],
        "attr": { "T": { "type": "DT_FLOAT" } }
      }
    ],
    "library": {},
    "versions": { "producer": 1482 }
  },
  "weightsManifest": [
    {
      "paths": [
        "group1-shard1of3.bin",
        "group1-shard2of3.bin",
        "group1-shard3of3.bin"
      ],
      "weights": [
        {
          "name": "ConstantFolding/PartitionedCall/model_2/tf.math.divide/truediv_recip",
          "shape": [1, 1, 1],
          "dtype": "float32"
        },
        { "name": "3287", "shape": [1, 2, 8400], "dtype": "float32" },
        { "name": "3279", "shape": [3], "dtype": "int32" },
        { "name": "3281", "shape": [3], "dtype": "int32" },
        {
          "name": "PartitionedCall/model_2/tf.strided_slice_19/ones_like",
          "shape": [3],
          "dtype": "int32"
        },
        { "name": "3289", "shape": [1, 2, 8400], "dtype": "float32" },
        { "name": "3273", "shape": [3], "dtype": "int32" },
        { "name": "3275", "shape": [3], "dtype": "int32" },
        {
          "name": "PartitionedCall/model_2/tf.strided_slice_16/StridedSlice/strides",
          "shape": [3],
          "dtype": "int32"
        },
        {
          "name": "PartitionedCall/model_2/tf.reshape_3/Reshape/shape",
          "shape": [4],
          "dtype": "int32"
        },
        {
          "name": "PartitionedCall/model_2/tf.compat.v1.transpose_4/transpose/perm",
          "shape": [4],
          "dtype": "int32"
        },
        {
          "name": "PartitionedCall/model_2/tf.compat.v1.transpose_5/transpose/perm",
          "shape": [4],
          "dtype": "int32"
        },
        { "name": "3277", "shape": [1, 1, 16, 1], "dtype": "float32" },
        {
          "name": "PartitionedCall/model_2/tf.compat.v1.transpose_8/transpose/perm",
          "shape": [4],
          "dtype": "int32"
        },
        {
          "name": "PartitionedCall/model_2/tf.reshape_4/Reshape/shape",
          "shape": [3],
          "dtype": "int32"
        },
        { "name": "3283", "shape": [3], "dtype": "int32" },
        { "name": "3285", "shape": [3], "dtype": "int32" },
        {
          "name": "PartitionedCall/model_2/tf.strided_slice_18/ones_like",
          "shape": [3],
          "dtype": "int32"
        },
        {
          "name": "PartitionedCall/model_2/tf.concat_17/concat/axis",
          "shape": [],
          "dtype": "int32"
        },
        {
          "name": "PartitionedCall/model_2/tf.math.multiply_185/Mul/y",
          "shape": [1, 1, 8400],
          "dtype": "float32"
        },
        { "name": "3211", "shape": [3, 3, 64, 64], "dtype": "float32" },
        { "name": "3223", "shape": [64], "dtype": "float32" },
        { "name": "3235", "shape": [3, 3, 64, 64], "dtype": "float32" },
        { "name": "3247", "shape": [64], "dtype": "float32" },
        { "name": "3259", "shape": [1, 1, 64, 64], "dtype": "float32" },
        { "name": "3269", "shape": [64], "dtype": "float32" },
        { "name": "3209", "shape": [3, 3, 64, 64], "dtype": "float32" },
        { "name": "3221", "shape": [64], "dtype": "float32" },
        { "name": "3233", "shape": [3, 3, 64, 64], "dtype": "float32" },
        { "name": "3245", "shape": [64], "dtype": "float32" },
        { "name": "3257", "shape": [1, 1, 64, 26], "dtype": "float32" },
        { "name": "3271", "shape": [26], "dtype": "float32" },
        {
          "name": "PartitionedCall/model_2/tf.concat_10/concat/axis",
          "shape": [],
          "dtype": "int32"
        },
        {
          "name": "PartitionedCall/model_2/tf.compat.v1.transpose/transpose/perm",
          "shape": [4],
          "dtype": "int32"
        },
        {
          "name": "PartitionedCall/model_2/tf.reshape/Reshape/shape",
          "shape": [3],
          "dtype": "int32"
        },
        { "name": "3207", "shape": [3, 3, 128, 64], "dtype": "float32" },
        { "name": "3219", "shape": [64], "dtype": "float32" },
        { "name": "3231", "shape": [3, 3, 64, 64], "dtype": "float32" },
        { "name": "3243", "shape": [64], "dtype": "float32" },
        { "name": "3255", "shape": [1, 1, 64, 64], "dtype": "float32" },
        { "name": "3265", "shape": [64], "dtype": "float32" },
        { "name": "3205", "shape": [3, 3, 128, 64], "dtype": "float32" },
        { "name": "3217", "shape": [64], "dtype": "float32" },
        { "name": "3229", "shape": [3, 3, 64, 64], "dtype": "float32" },
        { "name": "3241", "shape": [64], "dtype": "float32" },
        { "name": "3253", "shape": [1, 1, 64, 26], "dtype": "float32" },
        { "name": "3267", "shape": [26], "dtype": "float32" },
        {
          "name": "PartitionedCall/model_2/tf.concat_13/concat/axis",
          "shape": [],
          "dtype": "int32"
        },
        {
          "name": "PartitionedCall/model_2/tf.compat.v1.transpose_1/transpose/perm",
          "shape": [4],
          "dtype": "int32"
        },
        {
          "name": "PartitionedCall/model_2/tf.reshape_1/Reshape/shape",
          "shape": [3],
          "dtype": "int32"
        },
        { "name": "3203", "shape": [3, 3, 256, 64], "dtype": "float32" },
        { "name": "3215", "shape": [64], "dtype": "float32" },
        { "name": "3227", "shape": [3, 3, 64, 64], "dtype": "float32" },
        { "name": "3239", "shape": [64], "dtype": "float32" },
        { "name": "3251", "shape": [1, 1, 64, 64], "dtype": "float32" },
        { "name": "3261", "shape": [64], "dtype": "float32" },
        { "name": "3193", "shape": [4], "dtype": "int32" },
        { "name": "3195", "shape": [4], "dtype": "int32" },
        {
          "name": "PartitionedCall/model_2/tf.strided_slice_14/ones_like",
          "shape": [4],
          "dtype": "int32"
        },
        { "name": "3163", "shape": [4], "dtype": "int32" },
        { "name": "3165", "shape": [4], "dtype": "int32" },
        {
          "name": "PartitionedCall/model_2/tf.strided_slice_12/ones_like",
          "shape": [4],
          "dtype": "int32"
        },
        { "name": "3133", "shape": [4], "dtype": "int32" },
        { "name": "3135", "shape": [4], "dtype": "int32" },
        {
          "name": "PartitionedCall/model_2/tf.strided_slice_10/ones_like",
          "shape": [4],
          "dtype": "int32"
        },
        {
          "name": "PartitionedCall/model_2/lambda_1//model.13/Resize/size",
          "shape": [2],
          "dtype": "int32"
        },
        {
          "name": "PartitionedCall/model_2/tf.concat_7/concat/axis",
          "shape": [],
          "dtype": "int32"
        },
        { "name": "3117", "shape": [1, 1, 192, 64], "dtype": "float32" },
        { "name": "3119", "shape": [64], "dtype": "float32" },
        { "name": "3121", "shape": [4], "dtype": "int32" },
        { "name": "3123", "shape": [4], "dtype": "int32" },
        {
          "name": "PartitionedCall/model_2/tf.strided_slice_11/ones_like",
          "shape": [4],
          "dtype": "int32"
        },
        { "name": "3125", "shape": [3, 3, 32, 32], "dtype": "float32" },
        { "name": "3127", "shape": [32], "dtype": "float32" },
        { "name": "3129", "shape": [3, 3, 32, 32], "dtype": "float32" },
        { "name": "3131", "shape": [32], "dtype": "float32" },
        {
          "name": "PartitionedCall/model_2/tf.concat_8/concat/axis",
          "shape": [],
          "dtype": "int32"
        },
        { "name": "3137", "shape": [1, 1, 96, 64], "dtype": "float32" },
        { "name": "3139", "shape": [64], "dtype": "float32" },
        { "name": "3141", "shape": [4, 2], "dtype": "int32" },
        { "name": "3143", "shape": [3, 3, 64, 64], "dtype": "float32" },
        { "name": "3145", "shape": [64], "dtype": "float32" },
        { "name": "3109", "shape": [4], "dtype": "int32" },
        { "name": "3111", "shape": [4], "dtype": "int32" },
        {
          "name": "PartitionedCall/model_2/tf.strided_slice_8/ones_like",
          "shape": [4],
          "dtype": "int32"
        },
        {
          "name": "PartitionedCall/model_2/lambda//model.10/Resize/size",
          "shape": [2],
          "dtype": "int32"
        },
        {
          "name": "PartitionedCall/model_2/tf.concat_5/concat/axis",
          "shape": [],
          "dtype": "int32"
        },
        { "name": "3093", "shape": [1, 1, 384, 128], "dtype": "float32" },
        { "name": "3095", "shape": [128], "dtype": "float32" },
        { "name": "3097", "shape": [4], "dtype": "int32" },
        { "name": "3099", "shape": [4], "dtype": "int32" },
        {
          "name": "PartitionedCall/model_2/tf.strided_slice_9/ones_like",
          "shape": [4],
          "dtype": "int32"
        },
        { "name": "3101", "shape": [3, 3, 64, 64], "dtype": "float32" },
        { "name": "3103", "shape": [64], "dtype": "float32" },
        { "name": "3105", "shape": [3, 3, 64, 64], "dtype": "float32" },
        { "name": "3107", "shape": [64], "dtype": "float32" },
        {
          "name": "PartitionedCall/model_2/tf.concat_6/concat/axis",
          "shape": [],
          "dtype": "int32"
        },
        { "name": "3113", "shape": [1, 1, 192, 128], "dtype": "float32" },
        { "name": "3115", "shape": [128], "dtype": "float32" },
        {
          "name": "PartitionedCall/model_2/tf.concat_9/concat/axis",
          "shape": [],
          "dtype": "int32"
        },
        { "name": "3147", "shape": [1, 1, 192, 128], "dtype": "float32" },
        { "name": "3149", "shape": [128], "dtype": "float32" },
        { "name": "3151", "shape": [4], "dtype": "int32" },
        { "name": "3153", "shape": [4], "dtype": "int32" },
        {
          "name": "PartitionedCall/model_2/tf.strided_slice_13/ones_like",
          "shape": [4],
          "dtype": "int32"
        },
        { "name": "3155", "shape": [3, 3, 64, 64], "dtype": "float32" },
        { "name": "3157", "shape": [64], "dtype": "float32" },
        { "name": "3159", "shape": [3, 3, 64, 64], "dtype": "float32" },
        { "name": "3161", "shape": [64], "dtype": "float32" },
        {
          "name": "PartitionedCall/model_2/tf.concat_11/concat/axis",
          "shape": [],
          "dtype": "int32"
        },
        { "name": "3167", "shape": [1, 1, 192, 128], "dtype": "float32" },
        { "name": "3169", "shape": [128], "dtype": "float32" },
        { "name": "3171", "shape": [4, 2], "dtype": "int32" },
        { "name": "3173", "shape": [3, 3, 128, 128], "dtype": "float32" },
        { "name": "3175", "shape": [128], "dtype": "float32" },
        { "name": "3077", "shape": [4], "dtype": "int32" },
        { "name": "3079", "shape": [4], "dtype": "int32" },
        {
          "name": "PartitionedCall/model_2/tf.strided_slice_6/ones_like",
          "shape": [4],
          "dtype": "int32"
        },
        { "name": "3047", "shape": [4], "dtype": "int32" },
        { "name": "3049", "shape": [4], "dtype": "int32" },
        {
          "name": "PartitionedCall/model_2/tf.strided_slice_4/ones_like",
          "shape": [4],
          "dtype": "int32"
        },
        { "name": "3009", "shape": [4], "dtype": "int32" },
        { "name": "3011", "shape": [4], "dtype": "int32" },
        {
          "name": "PartitionedCall/model_2/tf.strided_slice_2/ones_like",
          "shape": [4],
          "dtype": "int32"
        },
        { "name": "2971", "shape": [4], "dtype": "int32" },
        { "name": "2973", "shape": [4], "dtype": "int32" },
        {
          "name": "PartitionedCall/model_2/tf.strided_slice/ones_like",
          "shape": [4],
          "dtype": "int32"
        },
        { "name": "2943", "shape": [4, 2], "dtype": "int32" },
        { "name": "2945", "shape": [3, 3, 3, 16], "dtype": "float32" },
        { "name": "2947", "shape": [16], "dtype": "float32" },
        { "name": "2949", "shape": [4, 2], "dtype": "int32" },
        { "name": "2951", "shape": [3, 3, 16, 32], "dtype": "float32" },
        { "name": "2953", "shape": [32], "dtype": "float32" },
        { "name": "2955", "shape": [1, 1, 32, 32], "dtype": "float32" },
        { "name": "2957", "shape": [32], "dtype": "float32" },
        { "name": "2959", "shape": [4], "dtype": "int32" },
        { "name": "2961", "shape": [4], "dtype": "int32" },
        {
          "name": "PartitionedCall/model_2/tf.strided_slice_1/ones_like",
          "shape": [4],
          "dtype": "int32"
        },
        { "name": "2963", "shape": [3, 3, 16, 16], "dtype": "float32" },
        { "name": "2965", "shape": [16], "dtype": "float32" },
        { "name": "2967", "shape": [3, 3, 16, 16], "dtype": "float32" },
        { "name": "2969", "shape": [16], "dtype": "float32" },
        {
          "name": "PartitionedCall/model_2/tf.concat/concat/axis",
          "shape": [],
          "dtype": "int32"
        },
        { "name": "2975", "shape": [1, 1, 48, 32], "dtype": "float32" },
        { "name": "2977", "shape": [32], "dtype": "float32" },
        { "name": "2979", "shape": [4, 2], "dtype": "int32" },
        { "name": "2981", "shape": [3, 3, 32, 64], "dtype": "float32" },
        { "name": "2983", "shape": [64], "dtype": "float32" },
        { "name": "2985", "shape": [1, 1, 64, 64], "dtype": "float32" },
        { "name": "2987", "shape": [64], "dtype": "float32" },
        { "name": "2989", "shape": [4], "dtype": "int32" },
        { "name": "2991", "shape": [4], "dtype": "int32" },
        {
          "name": "PartitionedCall/model_2/tf.strided_slice_3/ones_like",
          "shape": [4],
          "dtype": "int32"
        },
        { "name": "2993", "shape": [3, 3, 32, 32], "dtype": "float32" },
        { "name": "2995", "shape": [32], "dtype": "float32" },
        { "name": "2997", "shape": [3, 3, 32, 32], "dtype": "float32" },
        { "name": "2999", "shape": [32], "dtype": "float32" },
        { "name": "3001", "shape": [3, 3, 32, 32], "dtype": "float32" },
        { "name": "3003", "shape": [32], "dtype": "float32" },
        { "name": "3005", "shape": [3, 3, 32, 32], "dtype": "float32" },
        { "name": "3007", "shape": [32], "dtype": "float32" },
        {
          "name": "PartitionedCall/model_2/tf.concat_1/concat/axis",
          "shape": [],
          "dtype": "int32"
        },
        { "name": "3013", "shape": [1, 1, 128, 64], "dtype": "float32" },
        { "name": "3015", "shape": [64], "dtype": "float32" },
        { "name": "3017", "shape": [4, 2], "dtype": "int32" },
        { "name": "3019", "shape": [3, 3, 64, 128], "dtype": "float32" },
        { "name": "3021", "shape": [128], "dtype": "float32" },
        { "name": "3023", "shape": [1, 1, 128, 128], "dtype": "float32" },
        { "name": "3025", "shape": [128], "dtype": "float32" },
        { "name": "3027", "shape": [4], "dtype": "int32" },
        { "name": "3029", "shape": [4], "dtype": "int32" },
        {
          "name": "PartitionedCall/model_2/tf.strided_slice_5/ones_like",
          "shape": [4],
          "dtype": "int32"
        },
        { "name": "3031", "shape": [3, 3, 64, 64], "dtype": "float32" },
        { "name": "3033", "shape": [64], "dtype": "float32" },
        { "name": "3035", "shape": [3, 3, 64, 64], "dtype": "float32" },
        { "name": "3037", "shape": [64], "dtype": "float32" },
        { "name": "3039", "shape": [3, 3, 64, 64], "dtype": "float32" },
        { "name": "3041", "shape": [64], "dtype": "float32" },
        { "name": "3043", "shape": [3, 3, 64, 64], "dtype": "float32" },
        { "name": "3045", "shape": [64], "dtype": "float32" },
        {
          "name": "PartitionedCall/model_2/tf.concat_2/concat/axis",
          "shape": [],
          "dtype": "int32"
        },
        { "name": "3051", "shape": [1, 1, 256, 128], "dtype": "float32" },
        { "name": "3053", "shape": [128], "dtype": "float32" },
        { "name": "3055", "shape": [4, 2], "dtype": "int32" },
        { "name": "3057", "shape": [3, 3, 128, 256], "dtype": "float32" },
        { "name": "3059", "shape": [256], "dtype": "float32" },
        { "name": "3061", "shape": [1, 1, 256, 256], "dtype": "float32" },
        { "name": "3063", "shape": [256], "dtype": "float32" },
        { "name": "3065", "shape": [4], "dtype": "int32" },
        { "name": "3067", "shape": [4], "dtype": "int32" },
        {
          "name": "PartitionedCall/model_2/tf.strided_slice_7/ones_like",
          "shape": [4],
          "dtype": "int32"
        },
        { "name": "3069", "shape": [3, 3, 128, 128], "dtype": "float32" },
        { "name": "3071", "shape": [128], "dtype": "float32" },
        { "name": "3073", "shape": [3, 3, 128, 128], "dtype": "float32" },
        { "name": "3075", "shape": [128], "dtype": "float32" },
        {
          "name": "PartitionedCall/model_2/tf.concat_3/concat/axis",
          "shape": [],
          "dtype": "int32"
        },
        { "name": "3081", "shape": [1, 1, 384, 256], "dtype": "float32" },
        { "name": "3083", "shape": [256], "dtype": "float32" },
        { "name": "3085", "shape": [1, 1, 256, 128], "dtype": "float32" },
        { "name": "3087", "shape": [128], "dtype": "float32" },
        {
          "name": "PartitionedCall/model_2/tf.concat_4/concat/axis",
          "shape": [],
          "dtype": "int32"
        },
        { "name": "3089", "shape": [1, 1, 512, 256], "dtype": "float32" },
        { "name": "3091", "shape": [256], "dtype": "float32" },
        {
          "name": "PartitionedCall/model_2/tf.concat_12/concat/axis",
          "shape": [],
          "dtype": "int32"
        },
        { "name": "3177", "shape": [1, 1, 384, 256], "dtype": "float32" },
        { "name": "3179", "shape": [256], "dtype": "float32" },
        { "name": "3181", "shape": [4], "dtype": "int32" },
        { "name": "3183", "shape": [4], "dtype": "int32" },
        {
          "name": "PartitionedCall/model_2/tf.strided_slice_15/ones_like",
          "shape": [4],
          "dtype": "int32"
        },
        { "name": "3185", "shape": [3, 3, 128, 128], "dtype": "float32" },
        { "name": "3187", "shape": [128], "dtype": "float32" },
        { "name": "3189", "shape": [3, 3, 128, 128], "dtype": "float32" },
        { "name": "3191", "shape": [128], "dtype": "float32" },
        {
          "name": "PartitionedCall/model_2/tf.concat_14/concat/axis",
          "shape": [],
          "dtype": "int32"
        },
        { "name": "3197", "shape": [1, 1, 384, 256], "dtype": "float32" },
        { "name": "3199", "shape": [256], "dtype": "float32" },
        { "name": "3201", "shape": [3, 3, 256, 64], "dtype": "float32" },
        { "name": "3213", "shape": [64], "dtype": "float32" },
        { "name": "3225", "shape": [3, 3, 64, 64], "dtype": "float32" },
        { "name": "3237", "shape": [64], "dtype": "float32" },
        { "name": "3249", "shape": [1, 1, 64, 26], "dtype": "float32" },
        { "name": "3263", "shape": [26], "dtype": "float32" },
        {
          "name": "PartitionedCall/model_2/tf.concat_15/concat/axis",
          "shape": [],
          "dtype": "int32"
        },
        {
          "name": "PartitionedCall/model_2/tf.compat.v1.transpose_2/transpose/perm",
          "shape": [4],
          "dtype": "int32"
        },
        {
          "name": "PartitionedCall/model_2/tf.reshape_2/Reshape/shape",
          "shape": [3],
          "dtype": "int32"
        },
        {
          "name": "PartitionedCall/model_2/tf.concat_16/concat/axis",
          "shape": [],
          "dtype": "int32"
        },
        { "name": "3293", "shape": [3], "dtype": "int32" },
        { "name": "3295", "shape": [3], "dtype": "int32" },
        {
          "name": "PartitionedCall/model_2/tf.strided_slice_17/StridedSlice/strides",
          "shape": [3],
          "dtype": "int32"
        },
        {
          "name": "PartitionedCall/model_2/output0/concat/axis",
          "shape": [],
          "dtype": "int32"
        }
      ]
    }
  ]
}
